model.pth (torch, 103061 bytes, 31 tensors)

0.weight f4 [8, 3, 3, 3]
0	0xbc5c738d	-0.013455284
1	0xbe39b7b3	-0.18136482
2	0x3dcd60f8	0.10028261
3	0x3e15b4da	0.1461977
4	0x3e3c29f8	0.18375385
5	0xbdad42a8	-0.08459979
6	0xbe26024e	-0.16211817
7	0xbdea8371	-0.11450852
8	0x3d365f92	0.044524737
9	0x3d3d1832	0.046165653
10	0xbddcd894	-0.107834965
11	0x3ddd0752	0.10792412
12	0x3d764608	0.06012538
13	0x3e18b4cd	0.1491272
14	0xbe4019d6	-0.18759856
15	0x3e23032a	0.15919176
16	0xbe0ce75c	-0.13760132
17	0xbdaa2e0b	-0.08309563
18	0xbe48973b	-0.1958894
19	0xbdffe805	-0.12495426
20	0x3e082881	0.13296701
21	0x3e133837	0.14376913
22	0xbdca002e	-0.098633155
23	0xbdf7858a	-0.120860174
24	0x3dfe9a90	0.12431824
25	0xbe24fe00	-0.16112518
26	0xbc02ce71	-0.00798379
27	0x3df56a7e	0.119832024
28	0x3e124121	0.14282657
29	0x3d41de78	0.047331303
30	0x3bece263	0.007229136
31	0xbe40451f	-0.18776368
32	0x3df911b6	0.12161581
33	0xbe0124c4	-0.12611681
34	0xbe3063f2	-0.17225626
35	0x3ba45520	0.0050150305
36	0x3e0ea50b	0.13930146
37	0x3d502a7c	0.050821766
38	0xbda694df	-0.08133864
39	0xba911135	-0.001106775
40	0x3ca5744b	0.020197054
41	0xbe2e66b5	-0.17031367
42	0xbd9faf86	-0.0779715
43	0x3dc19abe	0.09453343
44	0x3baf31ad	0.005346498
45	0x3e05c210	0.1306231
46	0xbdbdb25f	-0.09262537
47	0x3e2b7a58	0.16745889
48	0x3e1650b9	0.14679231
49	0xbdb8abda	-0.09017153
50	0xbcb7755e	-0.022394832
51	0x3d80db35	0.062918104
52	0xbb65a404	-0.0035040388
53	0x3d1730ba	0.036911704
54	0xbdb3d783	-0.0878134
55	0x3c0eaebc	0.008708652
56	0xbd1bed87	-0.03806832
57	0x3e416318	0.18885458
58	0x3d7384a0	0.059452653
59	0xbe28806c	-0.16455239
60	0xbd6714ad	-0.056416202
61	0x3de7864f	0.11304914
62	0xbcf95a1d	-0.030438477
63	0x3e0f00aa	0.13965097
64	0x3cf25f69	0.02958651
65	0x3db6956d	0.089152195
66	0x3dfb026a	0.1225632
67	0xbdedccce	-0.11611329
68	0x3e0541d0	0.13013387
69	0xbd59a986	-0.053140186
70	0x3de02a25	0.109455384
71	0xbde356cc	-0.111005396
72	0x3d3a606e	0.04550212
73	0xbe447205	-0.1918412
74	0xbd9b49e0	-0.0758245
75	0xbc507f2e	-0.0127256345
76	0xbe01814a	-0.12646976
77	0xbda5d97b	-0.08098122
78	0x3e0e8103	0.13916402
79	0x3e28d953	0.16489153
80	0xbd8f1ec2	-0.069882885
81	0xbe3d3713	-0.1847804
82	0xbcbd05ed	-0.023074115
83	0x3d781519	0.060566995
84	0x3b2ff46c	0.0026848568
85	0x3e41af2c	0.18914479
86	0xbd9972d8	-0.07492608
87	0x3e1985c4	0.14992434
88	0x3c34b92e	0.011030478
89	0xbd0ea3e1	-0.034824256
90	0xbce3baaf	-0.027798979
91	0x3d464908	0.04840949
92	0x3d6318f6	0.055443726
93	0xbdc512d0	-0.09622729
94	0x3da8c1a6	0.082400605
95	0xbd562766	-0.052283667
96	0xbcf91d8b	-0.030409595
97	0xbdd0ce66	-0.101956174
98	0xbe3b79fb	-0.1830825
99	0xbdbc1cd1	-0.09185184
100	0xbe3d3665	-0.18477781
101	0xbc1d9477	-0.009617916
102	0x3e343229	0.1759726
103	0x3d6469de	0.055765025
104	0x3dd3992f	0.10331952
105	0xbc1af4f4	-0.009457815
106	0x3d52f6e8	0.051505
107	0x3e389e22	0.18029073
108	0xbc2b8302	-0.010468246
109	0x3dd5c719	0.104383655
110	0x3d73bcc4	0.059506193
111	0xbe113da2	-0.14183667
112	0x3da04a88	0.07826716
113	0xbcd44dc0	-0.02591598
114	0xbc8d6dfa	-0.017264355
115	0xbe1bdd2b	-0.15221088
116	0xbdda8b2f	-0.106710784
117	0x3e1c3f67	0.15258561
118	0xbc48a124	-0.01224545
119	0xbe1aac5c	-0.15104812
120	0xbdce0c26	-0.10060911
121	0xbdeb1087	-0.11477762
122	0x3dc952c5	0.0983024
123	0x3e40f8b7	0.18844877
124	0xbd7dcabf	-0.061960932
125	0x3d9d1a4e	0.07671033
126	0xbcf8534f	-0.030313162
127	0xbb9823de	-0.0046429476
128	0x3d6029bf	0.054727312
129	0xbdedc6d9	-0.11610193
130	0xbe081be6	-0.13291892
131	0x3b2c0781	0.002624959
132	0xbe4ae3e8	-0.19813502
133	0x3e13ebe8	0.1444546
134	0x3e0956b5	0.13411982
135	0xbde80a68	-0.1133011
136	0xbcb3a2c4	-0.021928199
137	0x3df40862	0.119156614
138	0xbe2710bf	-0.16314982
139	0x3e3d44f2	0.18483332
140	0x3db44b34	0.08803406
141	0xbc2c9163	-0.01053271
142	0xbdcee4ff	-0.10102271
143	0x3e2ba078	0.16760433
144	0x3cf7f66f	0.030268876
145	0x3c3def51	0.011592702
146	0x3deee8e8	0.11665517
147	0x3b8abd1f	0.004233971
148	0x3e36d3de	0.17854258
149	0xbdb4885b	-0.0881507
150	0xbd885f59	-0.06658811
151	0x3e0123e7	0.12611352
152	0x3cb0d062	0.02158374
153	0xbbc5ed2b	-0.0060402355
154	0x3e1ce3d8	0.1532129
155	0x3e34427e	0.1760349
156	0x3dd4ba5c	0.10387108
157	0xbd3716ab	-0.044699352
158	0x3de7d17f	0.11319255
159	0xbdd2c4c4	-0.10291436
160	0x3bad1f9f	0.0052833105
161	0x3dd04b3a	0.10170598
162	0xbd40a5d6	-0.047033153
163	0x3e4663d9	0.19374026
164	0xbdc02433	-0.093819045
165	0xbe1314d3	-0.14363413
166	0x3d1ba793	0.038001608
167	0x3dc46948	0.09590393
168	0xbe0b23ed	-0.13587923
169	0x3e29b61a	0.16573372
170	0xbc86d515	-0.016459027
171	0x3df0fa87	0.11766534
172	0x3e0b88d5	0.13626416
173	0xbd6b0988	-0.057382137
174	0xbc880843	-0.016605502
175	0x3cfdd93c	0.030987374
176	0xbda1eb2d	-0.07906184
177	0xbe1ff8e1	-0.15622284
178	0xbe1598f2	-0.14609125
179	0x3d194f48	0.037429124
180	0x3d655782	0.055991657
181	0x3d4ac4fa	0.049504258
182	0xbe375d29	-0.17906632
183	0xbe00d226	-0.12580165
184	0x3e1a4539	0.15065469
185	0x3c17d269	0.009266474
186	0x3d720403	0.059085857
187	0xbd4f8731	-0.050666038
188	0xbe27cbb1	-0.16386296
189	0x3e386337	0.18006597
190	0xbe2dae28	-0.16960967
191	0xbe16fc28	-0.14744627
192	0xbdaa4c0f	-0.08315288
193	0xbd901699	-0.0703556
194	0x3d1e398b	0.038629096
195	0x3d93fc9a	0.07225914
196	0x3e163705	0.14669426
197	0xbdde7de9	-0.10863859
198	0xbd6d174f	-0.057883557
199	0xbdf6402d	-0.12023959
200	0xbe40dd93	-0.18834524
201	0xbdc3542a	-0.095375374
202	0x3de019f7	0.109424524
203	0x3e12ba22	0.14328817
204	0xbe0b05ff	-0.13576506
205	0x3dfd7c65	0.12377242
206	0xbda88824	-0.08229092
207	0x3d171901	0.03688908
208	0xbdcba4f2	-0.0994357
209	0xbe09e3c9	-0.134658
210	0xbdb7dea7	-0.089780144
211	0xbb4ed084	-0.003155739
212	0x3cd8459c	0.02640038
213	0x3db3c466	0.087776944
214	0x3c835406	0.016031276
215	0x3e268ca6	0.1626459

0.bias f4 [8]
0	0xbd82c680	-0.06385517
1	0xbddb9471	-0.10721672
2	0xbe06d584	-0.13167387
3	0xbde53105	-0.1119099
4	0x3a8f7afc	0.0010946686
5	0xbe0e3931	-0.13889004
6	0x3e1f1aa6	0.1553751
7	0xbbaf08f2	-0.0053416425

1.weight f4 [8]
0	0x3f7ff7fe	0.9998778
1	0x3f807730	1.0036373
2	0x3f7eff10	0.99607944
3	0x3f804e39	1.0023872
4	0x3f7e5963	0.99355143
5	0x3f7f7e72	0.99802315
6	0x3f802490	1.0011158
7	0x3f800b33	1.0003418

1.bias f4 [8]
0	0x3adcfafa	0.0016859465
1	0x3bed8f52	0.007249751
2	0x3ac052ef	0.0014673154
3	0x3c3a8109	0.011383303
4	0xbbfc2672	-0.0076950127
5	0x3b0431f2	0.0020171371
6	0x388e759e	6.7929956e-05
7	0xba942b56	-0.0011304419

1.running_mean f4 [8]
0	0xbe115bb6	-0.14195141
1	0xbd7ad2bf	-0.06123614
2	0xbdb753ad	-0.08951507
3	0xbddee3a0	-0.1088326
4	0xbd8b597f	-0.068041794
5	0x3d9c9ab8	0.07646698
6	0x3dd345e0	0.10316062
7	0xbdf2de0a	-0.11858757

1.running_var f4 [8]
0	0x3bd45721	0.006480113
1	0x3b4d4ac1	0.0031325074
2	0x3b04ebee	0.0020282227
3	0x3a063f60	0.0005121138
4	0x3b947dd7	0.004531603
5	0x3d324e17	0.043531504
6	0x3b4f8424	0.0031664455
7	0x3c3eacde	0.011637894

3.weight f4 [16, 8, 5, 5]
0	0x3d67cc33	0.056591224
1	0xbc410d67	-0.0117829805
2	0x3d3356dc	0.043784007
3	0xbcef488b	-0.029209396
4	0x3d5e58e2	0.054283984
5	0xbd5ee5d4	-0.0544184
6	0xbd2a3f0c	-0.041564032
7	0xbd2a9ead	-0.04165523
8	0xbd7e871e	-0.062140577
9	0x3d38a30e	0.045077376
10	0xbbbdef15	-0.005796323
11	0xbc8faca6	-0.01753838
12	0xbd440733	-0.04785843
13	0xbd2ba2cb	-0.0419033
14	0x3d7bcace	0.061472706
15	0x3aae43cf	0.0013295355
16	0xbd12e0a1	-0.035858754
17	0xbb84aeec	-0.0040491726
18	0x3d7784ee	0.060429506
19	0xbcdc231e	-0.026872214
20	0xbd0f626b	-0.035005968
21	0x3cbb1b32	0.022840116
22	0x3ce022b4	0.027360298
23	0x3d0092e5	0.03139009
24	0x3cbfa24d	0.02339282
25	0x3d2bd191	0.041947905
26	0x3d91a0de	0.07110761
27	0x3d8beb4c	0.06831989
28	0xbb6cbe4c	-0.0036124168
29	0x3d4dd8d2	0.050255604
30	0x3b192d63	0.0023373
31	0x3d0fd4d4	0.035115078
32	0x3d873cba	0.066033795
33	0x3bf5d23e	0.0075018695
34	0x3d8e50fd	0.06949041
35	0xbcbccdf3	-0.023047423
36	0xbd204f09	-0.039137874
37	0x3d80d86e	0.06291281
38	0x3cf04045	0.029327521
39	0xbbdc2aaa	-0.006718953
40	0x3d1544a5	0.036442418
41	0xbd5c3b90	-0.05376774
42	0x3d6eaa05	0.058267612
43	0x3d02ba97	0.031916227
44	0x3b4e4c40	0.0031478554
45	0x3d8d5a2c	0.069019645
46	0x3c0d9f81	0.008643986
47	0x3cf2f634	0.029658414
48	0xbd23c6c2	-0.039984472
49	0x3d6ced3f	0.057843443
50	0x3d6bda26	0.05758109
51	0xbd3925de	-0.04520213
52	0xbc6b3e60	-0.014358133
53	0x3d4bb174	0.04972978
54	0xbcbf9a5e	-0.023389038
55	0xbd69de41	-0.057096723
56	0xbd4e6a2c	-0.050394222
57	0x3d06245e	0.032749526
58	0xbc563af1	-0.013075576
59	0xbd9ab740	-0.075544834
60	0xbcc570f9	-0.024101721
61	0xbc4d4ce1	-0.012530536
62	0x3cd7b298	0.026330277
63	0xbd53ed0b	-0.051739734
64	0x3cb2d0f2	0.021828149
65	0x3d611632	0.054952808
66	0x3d43b2bc	0.047777876
67	0xbd4e6765	-0.050391573
68	0xbbceec68	-0.006314803
69	0x3c12192e	0.008917136
70	0xbcf3ed46	-0.029776227
71	0xbd28509d	-0.041092504
72	0xbcad7d94	-0.021178044
73	0xbd221ba9	-0.03957716
74	0xbcdeb37a	-0.02718519
75	0xbd6edaa2	-0.058313973
76	0xbccbd529	-0.024881916
77	0xbc400e78	-0.0117222
78	0xbc51567c	-0.012776967
79	0xbcc643ba	-0.024202216
80	0xbd0b185e	-0.033958785
81	0x3bc3c736	0.0059746755
82	0x3d62ccde	0.055371158
83	0xbc1169be	-0.008875309
84	0xbd6362ef	-0.055514272
85	0xbb03337d	-0.0020019703
86	0x3d250766	0.04029026
87	0x3d1aa8be	0.03775858
88	0xbc16a076	-0.00919353
89	0x3c30cba8	0.010790743
90	0x3c93cc12	0.018041644
91	0xbd1b32da	-0.037890293
92	0x3d07ad42	0.033124216
93	0x3d6e3cc8	0.058163434
94	0xbcba5cb3	-0.02274928
95	0x3cd8498e	0.026402261
96	0x3d3530ce	0.044235997
97	0xbd5970c4	-0.053086057
98	0xbd0ae67d	-0.033911217
99	0x3b910401	0.004425526
100	0x3d84f165	0.06491355
101	0xbbdbcbcc	-0.006707644
102	0x3d15130a	0.03639511
103	0xbb7494cc	-0.0037320135
104	0x3d5e28af	0.054238018
105	0xbc3cf340	-0.011532605
106	0xbd7def01	-0.06199551
107	0xbcf4032a	-0.029786665
108	0xbd4c90d6	-0.049942814
109	0xbd0eb093	-0.034836363
110	0x3d62e330	0.055392444
111	0xbcc1cc0e	-0.023656871
112	0x3d1ffc7e	0.039059155
113	0xbd54d41f	-0.051960107
114	0xbd9152dd	-0.07095883
115	0x3d8772dc	0.066137046
116	0xbc91d898	-0.017803475
117	0xbd1989fb	-0.037485104
118	0xbd2abfa2	-0.04168666
119	0xbd95c083	-0.07312109
120	0x3d6fb0f9	0.058518384
121	0xbbb00b90	-0.005372472
122	0x3d797253	0.060900044
123	0x3d60de66	0.054899596
124	0x3bc4847b	0.005997238
125	0x3d833517	0.064066105
126	0x3c9b7bb4	0.018979885
127	0x3c3ec7dc	0.01164433
128	0xbc707a26	-0.01467756
129	0x3d40a049	0.04702786
130	0xbd824398	-0.06360549
131	0xbc1bd1d5	-0.009510477
132	0xbbf2741d	-0.0073990957
133	0x3d24d160	0.040238738
134	0xbc47d64a	-0.012197087
135	0xbcbf9ab1	-0.023389192
136	0xbbc2d988	-0.005946342
137	0x3ce33ddb	0.027739456
138	0xbc5a4e4f	-0.013324334
139	0x3d93d246	0.07217841
140	0xba9e4629	-0.0012075353
141	0x3d0f8c3b	0.035045844
142	0xbce17fa4	-0.027526684
143	0x3d677cdb	0.056515556
144	0x3bc6ce49	0.0060670716
145	0xbbf71951	-0.0075408597
146	0xbc7ba217	-0.015358469
147	0x3d2c47d7	0.0420607
148	0x3bd4c52f	0.0064932327
149	0x3cb4cf09	0.022071378
150	0xbd89d995	-0.067309536
151	0x3d3c272b	0.04593579
152	0xbd440efd	-0.047865856
153	0xbd132826	-0.03592696
154	0xbd26a7cb	-0.040687364
155	0x3d110d55	0.035413105
156	0x3d141f01	0.03616238
157	0xbbf4db8e	-0.007472462
158	0x3d1c860a	0.038213767
159	0xbd90bc1c	-0.07067129
160	0x3d8abcfe	0.06774329
161	0x3a60577b	0.00085579575
162	0xbbdb4b24	-0.006692307
163	0xbce2b429	-0.027673798
164	0xbd05f5e3	-0.0327052
165	0x3d55d207	0.05220225
166	0xbd93b482	-0.072121635
167	0xbc95ddba	-0.018294204
168	0x3d502005	0.050811786
169	0x3c13f240	0.009029925
170	0xbd37ac15	-0.044841845
171	0x3cb0e733	0.02159462
172	0x3cc55257	0.024087114
173	0x3c9c4ec2	0.019080523
174	0x3d356b4e	0.044291787
175	0x3d4741b8	0.04864666
176	0x3af89665	0.001896572
177	0x3c429aa2	0.011877688
178	0xbbe5a22f	-0.007007859
179	0x3cdf533a	0.027261365
180	0xbb88b793	-0.0041722744
181	0xbcaaa88a	-0.020832319
182	0x3d225243	0.039629232
183	0xbc27cfbe	-0.010242401
184	0x3d19f89f	0.03759062
185	0x3cd2bcd7	0.025724811
186	0xbcf65002	-0.030067448
187	0x3d3e0000	0.04638672
188	0xb8cb38d2	-9.690378e-05
189	0xbc4bfde4	-0.012450669
190	0x3c1ff148	0.009762116
191	0x3d6efb9c	0.058345422
192	0x3d84dbef	0.064872615
193	0xbce02eb2	-0.027366016
194	0xbd37ca05	-0.044870395
195	0xbce16c55	-0.027517477
196	0x3ccb28a0	0.024799645
197	0xbd560a34	-0.052255824
198	0xbcb3427e	-0.021882292
199	0x3d85fd49	0.06542451
200	0xbcc77158	-0.024346039
201	0x3ce68341	0.028138759
202	0x3a3f813a	0.0007305328
203	0xbbe1e183	-0.006893338
204	0xbd28945a	-0.041157104
205	0xbcebdf28	-0.028792933
206	0x3d90e57c	0.07075021
207	0x3d146645	0.036230344
208	0x3d78eb10	0.060771048
209	0xbce6c44f	-0.02816978
210	0x3d3dffd2	0.046386547
211	0x3d97f88e	0.07420455
212	0x3d469bef	0.048488554
213	0x3b99150a	0.0046716975
214	0x3d5c7718	0.053824514
215	0x3d93c21c	0.07214758
216	0xbd6c72fc	-0.057726845
217	0xbcca5044	-0.024696477
218	0x3d03cfac	0.032180473
219	0x3c288639	0.010285907
220	0x3bc628a4	0.006047325
221	0xbd5f0f02	-0.054457672
222	0x3bc09915	0.005877624
223	0xbd2fd3fd	-0.042926777
224	0x3c87f853	0.016597902
225	0xbd518f5a	-0.0511621
226	0x3c993c2e	0.018705454
227	0x3d2f2d2c	0.04276769
228	0x3c98d2d9	0.018655227
229	0xbbfb7e9a	-0.007675004
230	0x3d6414c8	0.05568388
231	0xbd3c5a31	-0.04598445
232	0x3cf056cc	0.029338263
233	0x3cdfdea2	0.02732784
234	0xbd440599	-0.0478569
235	0xbd0e540d	-0.034748126
236	0x3d766478	0.06015441
237	0x3d86eb96	0.06587903
238	0x3d1edb30	0.038783252
239	0x3d2d38bb	0.04229043
240	0xbd60d3ef	-0.054889616
241	0x3ba0026a	0.0048831003
242	0xbd4e25a4	-0.050328866
243	0xbc8f23e8	-0.017473176
244	0x3d82a997	0.06380003
245	0x3d2f74ad	0.04283588
246	0xbd82384d	-0.06358395
247	0x3d00af1c	0.031416997
248	0x3d4b03d5	0.0495642
249	0xbd8c7c1a	-0.06859608
250	0x3d2509c3	0.040292513
251	0x3cbe8538	0.023256883
252	0xbc9e58d2	-0.019329462
253	0xbca38345	-0.019960055
254	0xbd057c7c	-0.03258942
255	0xbca58acb	-0.020207783

3.bias f4 [16]
0	0xbd0ce252	-0.034395523
1	0xbbb158d1	-0.005412199
2	0x3d48aac0	0.048990965
3	0x3cdd25f4	0.026995637
4	0xbd8624c2	-0.0654998
5	0xbd602629	-0.054723892
6	0xbd4eafee	-0.05046075
7	0x3d1d77d9	0.038444374
8	0xbc9cfad9	-0.019162582
9	0x3d18bb20	0.03728783
10	0x3c04e0da	0.008110249
11	0x3d0d7773	0.034537744
12	0xbb922013	-0.00445939
13	0x3cc6387b	0.024196854
14	0xbd868169	-0.06567652
15	0x3d529e67	0.051420595

4.weight f4 [16]
0	0x3f7f873a	0.99815714
1	0x3f817eb8	1.0116796
2	0x3f7e1cb4	0.9926255
3	0x3f802fb5	1.0014559
4	0x3f7e2e6b	0.9928958
5	0x3f7fbef7	0.99900764
6	0x3f8029a3	1.0012707
7	0x3f80851b	1.004062
8	0x3f80eec7	1.0072869
9	0x3f7f8fae	0.9982861
10	0x3f7e6950	0.99379444
11	0x3f7f9e38	0.998508
12	0x3f7f0dba	0.9963032
13	0x3f7fffb2	0.99999535
14	0x3f7fed21	0.99971205
15	0x3f7e58c6	0.9935421

4.bias f4 [16]
0	0xba0b3ade	-0.0005311201
1	0x3be141a8	0.006874282
2	0xb9cf60f3	-0.0003955435
3	0x3b295998	0.0025840756
4	0x3be3493d	0.006936221
5	0x3ab31a54	0.0013664463
6	0xbb146bf2	-0.0022647348
7	0x3a8b186a	0.0010612134
8	0x3bdeecaa	0.006803115
9	0xbb5b18f6	-0.0033431626
10	0x3981cde7	0.00024758207
11	0x3a6b0603	0.00089654344
12	0x399ae242	0.00029541744
13	0xba6e57e6	-0.00090920774
14	0x3b11c5ee	0.002224322
15	0xbb14be9a	-0.0022696615

4.running_mean f4 [16]
0	0x3e79cd57	0.24394737
1	0xbc414827	-0.011796988
2	0x3e455cde	0.19273707
3	0xbe22aee3	-0.15887026
4	0x3d70e72c	0.058814213
5	0xbf0ee386	-0.55815923
6	0xba7dbdcd	-0.00096794666
7	0xbe609dbc	-0.21935171
8	0xbe7f452c	-0.2492873
9	0x3e1355c4	0.14388186
10	0xbe6e058a	-0.232443
11	0xbe26f6a0	-0.16305017
12	0xbe52de44	-0.205926
13	0x3f019283	0.50614184
14	0xbee21bd8	-0.44161868
15	0x3f2b03ca	0.66802657

4.running_var f4 [16]
0	0x3e46b1f9	0.19403829
1	0x3cd78549	0.026308673
2	0x3d004af6	0.03132149
3	0x3dd3e408	0.10346228
4	0x3dd82347	0.105536036
5	0x3ed380c8	0.4130919
6	0x3dc30adc	0.09523556
7	0x3d0c73b9	0.03429005
8	0x3cbe3cb2	0.023222301
9	0x3d12f616	0.035879217
10	0x3d6fe67e	0.058569424
11	0x3d714ef4	0.058913186
12	0x3f19bac8	0.6005063
13	0x3e09261c	0.13393444
14	0x3e299318	0.16560018
15	0x3e88b194	0.2669798

6.weight f4 [16, 16, 7, 7]
0	0x3c77fa2c	0.015135329
1	0x3d248f23	0.04017557
2	0xbc583655	-0.0131965475
3	0x3cb5d57d	0.022196526
4	0x3d11123e	0.035417788
5	0xbca7d1e9	-0.020485835
6	0x3c5650ad	0.013080758
7	0x3c771605	0.015080933
8	0x3c991134	0.01868496
9	0xbbc8c201	-0.0061266427
10	0x3d0b6770	0.034034193
11	0xbc847c94	-0.016172685
12	0xbcd0d8d0	-0.02549401
13	0xbc82aaf7	-0.015950663
14	0x3cbeca2d	0.023289764
15	0x3cce4792	0.025180612
16	0x3aae8bd2	0.0013316816
17	0x3cec4f90	0.028846532
18	0x3ca03e02	0.019560818
19	0xbc896f2c	-0.016776644
20	0x3c62afd4	0.013835866
21	0xbbf8516a	-0.0075780647
22	0x3cda8171	0.02667305
23	0x3c6ba1ba	0.01438182
24	0xbcb6b833	-0.02230463
25	0xbca07f7d	-0.019592041
26	0x3ce7dbea	0.028303105
27	0xbc6f6b1a	-0.014612937
28	0xba958165	-0.001140636
29	0xbce7cb7f	-0.028295277
30	0xbc0d9ece	-0.008643819
31	0xbb850784	-0.004059734
32	0xbcbb4261	-0.0228588
33	0xbcd17a78	-0.025571093
34	0x3c3b5129	0.011432924
35	0xbd0bd609	-0.034139667
36	0xba97773a	-0.0011555918
37	0x3b76f20b	0.003768089
38	0xbc8dfef1	-0.01733348
39	0x3ad52eb0	0.0016264524
40	0xbc8bc8c1	-0.0170635
41	0xbb84ec87	-0.0040565166
42	0x3b40d6d8	0.0029424932
43	0x3c41b2e5	0.011822437
44	0xbcb720d1	-0.022354515
45	0x3c90e88f	0.017689018
46	0xbc4e3145	-0.012584989
47	0xbceca2db	-0.02888625
48	0xbcaae69e	-0.02086192
49	0x3cd3029a	0.025758076
50	0x3bf58622	0.0074927965
51	0x3cff2f34	0.031150438
52	0x3cd3a6d1	0.02583638
53	0x3d08fce2	0.033444293
54	0xbcff7f37	-0.03118859
55	0x3c03d6ca	0.008046815
56	0x3ce2ec7f	0.02770066
57	0xbc4bfff2	-0.012451159
58	0x3a0c6231	0.0005355208
59	0x3d12e36b	0.035861414
60	0xbcc64f7e	-0.024207827
61	0xbd09fb72	-0.033687063
62	0xbb5d4361	-0.0033762085
63	0xbc98de7e	-0.01866078
64	0x3bac2202	0.0052530775
65	0xbce8e46f	-0.028429238
66	0x3ab4c7fd	0.0013792511
67	0xbccd9ab7	-0.025098188
68	0x3bdc262e	0.0067184186
69	0x3a46a175	0.00075771596
70	0x3c6f027b	0.014587994
71	0x3cf58a9d	0.029973323
72	0x3bb22872	0.0054369504
73	0xbd033046	-0.03202846
74	0x3c4ff2b3	0.012692141
75	0x3ca66a68	0.02031441
76	0xbcf8a70b	-0.03035309
77	0x3d0ad7d1	0.033897225
78	0x3c93b8f2	0.018032525
79	0xbc47cb70	-0.012194499
80	0xbc756656	-0.014978012
81	0x3c7b63df	0.015343635
82	0xbb7fb531	-0.003901791
83	0xbc7dcc5c	-0.015490618
84	0x3ca9715e	0.02068394
85	0x3d35ff66	0.04443302
86	0x3b7b1f38	0.0038318168
87	0x3ca5b41c	0.020227484
88	0x3c16b97a	0.0091994945
89	0x3d0047d5	0.031318504
90	0xbcb491e4	-0.022042222
91	0xbaeaded7	-0.0017919195
92	0xbc6b20df	-0.014351099
93	0xbc3c0b8d	-0.011477363
94	0xbbb2e952	-0.005459943
95	0xbc880d1d	-0.016607815
96	0xbc634a8d	-0.013872755
97	0x3d0bcbca	0.034129895
98	0x3c2f2185	0.010689144
99	0x3c59ef8b	0.01330174
100	0xbc501b31	-0.012701795
101	0x3a50b1b0	0.0007961048
102	0xbc5c91f3	-0.013462531
103	0x3cbbae7e	0.022910353
104	0x3ba7d7ec	0.0051221754
105	0x3cca6654	0.024706997
106	0xbba5e748	-0.0050629713
107	0xbc0934b4	-0.008374382
108	0xbc2a8692	-0.010408061
109	0x3bcc9d8a	0.006244366
110	0x3d055ced	0.032559324
111	0x3cbf686b	0.02336522
112	0xbcdb59be	-0.02677619
113	0x3c01ee5f	0.007930367
114	0xbb56f55b	-0.0032800052
115	0x3c5a93ce	0.013340903
116	0x3ac9a0bf	0.0015382989
117	0x3b973ba3	0.0046152635
118	0xbc5ff87a	-0.013670081
119	0xbc8f534f	-0.01749578
120	0x3b8cdec5	0.004299017
121	0x3cd23382	0.025659326
122	0x3ce0e708	0.027453914
123	0xbc9f5f79	-0.019454705
124	0x3d102d84	0.035199657
125	0xbc9ea77e	-0.019366976
126	0xbbfcfb50	-0.0077203885
127	0xbc9de646	-0.019274842
128	0x3c980e92	0.018561635
129	0xbbff0c34	-0.007783437
130	0x3cdb1803	0.026744848
131	0x3c4833a1	0.012219341
132	0x3d04de05	0.032438297
133	0xbba35747	-0.0049847695
134	0xbc3e71df	-0.011623829
135	0xbcd9a536	-0.026568037
136	0x3c9eccb7	0.019384725
137	0x3d0f779d	0.03502618
138	0x3c4bdb34	0.012442399
139	0x3ce4e0ae	0.027939167
140	0x3cd0ad59	0.025473284
141	0xbc0c7706	-0.008573299
142	0xbce4d7d2	-0.027934942
143	0xbcdcba3f	-0.026944278
144	0xbb981669	-0.0046413434
145	0x3c616054	0.013755877
146	0xbc56d889	-0.013113149
147	0x3d0d9140	0.03456235
148	0xbc77140a	-0.015080461
149	0x3bd7010a	0.006561403
150	0xbd1af2fe	-0.03782939
151	0x3c27df22	0.01024607
152	0xbd1a2928	-0.037636906
153	0xbc3b566c	-0.011434179
154	0xbc6ed1d5	-0.014576395
155	0x3cae2470	0.02125761
156	0x3c9dcb61	0.019262018
157	0x3c3533a8	0.011059679
158	0xbc29feda	-0.010375703
159	0xbbb6de95	-0.005580733
160	0x3c754151	0.014969186
161	0x3d16c8ac	0.03681247
162	0x3c8bece9	0.017080741
163	0x3d0f607c	0.035004124
164	0xbd058299	-0.03259525
165	0xbd071cc4	-0.032986417
166	0xbcb5502e	-0.02213296
167	0xbc712b0e	-0.014719738
168	0x3c8d0623	0.01721484
169	0xbd04546b	-0.03230707
170	0x3cd89244	0.026436932
171	0x3be7dddc	0.0070760082
172	0xbcf97547	-0.03045143
173	0x3b1d67f4	0.002401826
174	0x3c3a79d1	0.011381582
175	0xbc7dcce7	-0.015490747
176	0xbb770827	-0.0037694068
177	0xbb1447e6	-0.0022625863
178	0x3a990ce5	0.0011676817
179	0xbd0adb89	-0.03390077
180	0xbcca8ab5	-0.024724344
181	0xbcd602c3	-0.026124364
182	0x3c3ca02d	0.011512798
183	0xbca63f06	-0.020293724
184	0x3c8623c7	0.016374482
185	0xbcff21f2	-0.031144116
186	0xbced4447	-0.028963221
187	0x3a0702fb	0.00051502854
188	0xbc5d1037	-0.013492635
189	0x3ce0fc35	0.027464012
190	0x3d029e70	0.03188938
191	0x3bd35bb8	0.0064501427
192	0x3c815659	0.015788244
193	0x3c90619a	0.017624665
194	0xbbfde0b8	-0.007747736
195	0x3cb452d7	0.022012157
196	0xbcbd3e69	-0.023101049
197	0xbb930bea	-0.0044875043
198	0x3c929d45	0.017897258
199	0xbc71b007	-0.014751441
200	0x3cde5823	0.027141636
201	0xbc356ba9	-0.011073031
202	0x3c4193cb	0.011815022
203	0xbca63f3a	-0.02029382
204	0xbc0306f9	-0.007997268
205	0xbcb9745f	-0.022638498
206	0x3cdbfcc6	0.02685393
207	0xbce606ec	-0.028079472
208	0xbcdf8237	-0.027283771
209	0xbc87bab4	-0.01656852
210	0xbc192bb4	-0.009348799
211	0xbbc40b3d	-0.005982785
212	0xbc8c1e27	-0.017104222
213	0x3c5e369b	0.013562824
214	0x3ba5cdc8	0.0050599314
215	0xbcfb1eb5	-0.03065429
216	0xbd10bc52	-0.035335846
217	0x3caa8349	0.020814555
218	0x3d07775d	0.033072818
219	0x3c0215fd	0.007939813
220	0xbad075ed	-0.0015904285
221	0xbc6e46f5	-0.014543285
222	0x3c9e0211	0.019288095
223	0x3cacf00c	0.021110557
224	0xbc7e1101	-0.015506984
225	0xbc17320a	-0.009228239
226	0xbd02ce05	-0.031934757
227	0x3cb52f36	0.022117238
228	0xbcc5e6bc	-0.024157874
229	0xbc7709a9	-0.015077987
230	0x3cc1da78	0.023663744
231	0xbb8dbf6f	-0.004325799
232	0xbc8014ec	-0.015634976
233	0xbc894237	-0.016755207
234	0x3c77f20e	0.015133394
235	0xbd0e148e	-0.03468757
236	0x3cae032e	0.02124175
237	0xbd07f9c1	-0.03319717
238	0x3bf20362	0.007385657
239	0x3c8d3192	0.017235551
240	0xbc4ac59a	-0.012376213
241	0xbc1718be	-0.009222208
242	0x3cc59618	0.024119422
243	0xbd1619bf	-0.036645647
244	0xbce0ceeb	-0.027442416
245	0x3cef9acc	0.029248618
246	0x3d0a67ad	0.03379028
247	0xbbf58de6	-0.0074937223
248	0xbcdaa3d1	-0.026689442
249	0x3c8dd11c	0.017311625
250	0xbcaebaba	-0.021329273
251	0x3cb08834	0.021549322
252	0x3cee8a6b	0.029118737
253	0xb9f67c10	-0.0004701321
254	0xbc58104a	-0.013187477
255	0xbc68daa0	-0.0142122805

6.bias f4 [16]
0	0xbcf10cf7	-0.029425127
1	0x3ca8926c	0.020577632
2	0xbd215af0	-0.039393365
3	0xbcc7c190	-0.02438429
4	0x3bd6838e	0.0065464443
5	0x3cec50e3	0.028847164
6	0xbb1582cf	-0.0022813564
7	0xbbfc2da0	-0.0076958686
8	0xbd13c76a	-0.036078848
9	0xbccb22c8	-0.024796858
10	0x3b420f94	0.0029611336
11	0x3ccce67e	0.025012251
12	0xbb4e811d	-0.0031510063
13	0xbca507e7	-0.02014537
14	0x3cd00c2a	0.025396425
15	0xbc2fd46b	-0.010731797

7.weight f4 [16]
0	0x3f7e9117	0.9944014
1	0x3f806614	1.0031152
2	0x3f7f9ce8	0.99848795
3	0x3f802316	1.0010707
4	0x3f8064c3	1.003075
5	0x3f80328b	1.0015424
6	0x3f807db3	1.003836
7	0x3f808bde	1.0042684
8	0x3f80b4d5	1.0055186
9	0x3f7ee466	0.9956726
10	0x3f7eaf2a	0.9948603
11	0x3f7c9e16	0.9867872
12	0x3f801173	1.0005325
13	0x3f802a2a	1.0012867
14	0x3f7cafb2	0.9870559
15	0x3f7f9135	0.99830943

7.bias f4 [16]
0	0xbb29b483	-0.0025894947
1	0xbc237808	-0.009977348
2	0x39c66067	0.00037837328
3	0xbb989e92	-0.004657575
4	0xbac18266	-0.0014763593
5	0xba1da9b2	-0.0006014361
6	0xbaa27858	-0.0012395484
7	0x3910aefe	0.000137981
8	0x3b074094	0.0020637857
9	0xbad6d4f8	-0.0016390374
10	0xbb5d4dd6	-0.0033768318
11	0xbba6e36b	-0.0050930283
12	0xba1672df	-0.0005739163
13	0x3a7aba86	0.00095645373
14	0xbb8f8689	-0.0043800515
15	0x397b2864	0.00023952272

7.running_mean f4 [16]
0	0xbd267142	-0.040635355
1	0xbf536d57	-0.82588714
2	0xbeba8182	-0.36426932
3	0x3c3138be	0.010816751
4	0xbec65adf	-0.38741204
5	0xbebd7786	-0.37005252
6	0xbf2646d9	-0.64951855
7	0xbedbe72a	-0.42949802
8	0xbd7b8413	-0.061405253
9	0xbe699d0e	-0.22813818
10	0x3db67840	0.089096546
11	0x3ef59663	0.47966298
12	0xbf07eec8	-0.53098726
13	0xbf082292	-0.5317775
14	0xbe85772a	-0.26067477
15	0xbdfa6e2a	-0.122280434

7.running_var f4 [16]
0	0x3e7e2ac0	0.24820995
1	0x3e3a5fcf	0.1820061
2	0x3ebece75	0.3726689
3	0x3de188de	0.110124335
4	0x3e8d0eef	0.27550456
5	0x3e84c0bb	0.25928292
6	0x3e641841	0.22274877
7	0x3f09621a	0.53665316
8	0x3ebdea1e	0.3709268
9	0x3f05b785	0.52233154
10	0x3e052e25	0.13005884
11	0x3f684218	0.9072585
12	0x3e07ff18	0.13280904
13	0x3f001df7	0.5004572
14	0x3e7a1d77	0.24425302
15	0x3ee66a72	0.45003086

9.weight f4 [8, 16, 7, 7]
0	0xbc883996	-0.016629022
1	0x3ce96ede	0.028495248
2	0xbca58556	-0.020205181
3	0xbca099bf	-0.019604562
4	0x3c8ce339	0.017198192
5	0x3c84de87	0.01621939
6	0xbcfca08d	-0.030838275
7	0xbc657269	-0.014004328
8	0xbcd1dedf	-0.025618969
9	0xbc1958f2	-0.009359585
10	0xbbe607e3	-0.007019983
11	0xbc1df3ab	-0.0096406145
12	0x3cb9ede2	0.02269644
13	0x3b1652bf	0.0022937504
14	0xbc243339	-0.010021978
15	0xbb7d4a68	-0.0038649086
16	0x3cf7613e	0.030197736
17	0xbca66e15	-0.020316163
18	0x3caa3b74	0.020780303
19	0x3cf7b77a	0.030238856
20	0xbd0f481e	-0.034980886
21	0x3d091a0c	0.033472106
22	0xbcdd1449	-0.026987212
23	0xbc34f1a6	-0.011043942
24	0xbc730f44	-0.014835183
25	0x3c351dc7	0.011054463
26	0x3d08c866	0.03339424
27	0x3c8255a6	0.015909981
28	0x3ca1e84d	0.01976409
29	0xbcd50ca2	-0.026007
30	0xbb40421b	-0.0029336277
31	0xbc2dc076	-0.010604968
32	0x3d11dca5	0.035610814
33	0x3ce48957	0.02789752
34	0x3c9d7382	0.019220117
35	0x3cbf1fc3	0.023330575
36	0xbcf1f1ce	-0.029534247
37	0x3c9860cd	0.018600846
38	0x3cbf5ed8	0.023360655
39	0xbceb4b02	-0.02872229
40	0x3cfe1827	0.031017376
41	0x39dafe17	0.00041769512
42	0x3c05ddcb	0.008170555
43	0xbcf0d695	-0.029399196
44	0x3b9d5787	0.004801694
45	0xbc5a573e	-0.013326464
46	0xbc32a1bb	-0.010902817
47	0xbcc8b1a4	-0.024498768
48	0x3cb23f39	0.021758663
49	0x3b840be3	0.0040297373
50	0x3c0903c8	0.008362718
51	0x3bc0a85b	0.0058794445
52	0x3b9419ad	0.0045196624
53	0x3d06cd38	0.032910556
54	0x3c8dec56	0.017324608
55	0x3c5c2eab	0.013438861
56	0xbcb1fdf0	-0.021727532
57	0xbcb1118e	-0.021614816
58	0xbc5b4aed	-0.013384563
59	0x3be57d8f	0.007003493
60	0x3ccbee54	0.024893917
61	0xbc7b564f	-0.015340402
62	0xbc6ee057	-0.014579854
63	0xbcff16a7	-0.031138731
64	0x3c59d5fb	0.013295646
65	0xbc7ee158	-0.015556656
66	0xbcb5c9ba	-0.022190917
67	0xbcf45bf5	-0.029829005
68	0x3cbcc61a	0.023043681
69	0x3c88edb0	0.0167149
70	0x3cc88ef2	0.024482224
71	0x3bd68047	0.0065460536
72	0xbce3fc7c	-0.027830355
73	0xbbcfa135	-0.006336356
74	0xbb8ee3a6	-0.004360634
75	0xba3f5f6e	-0.0007300292
76	0xbbeb497d	-0.0071803913
77	0xbb1b33ee	-0.0023682076
78	0x3ce8c416	0.028413814
79	0xbcf0954b	-0.029368063
80	0x3cc4684c	0.023975514
81	0x3c00bb77	0.007857195
82	0x3c81400f	0.015777616
83	0xbc460903	-0.0120871095
84	0xbc858fbc	-0.01630389
85	0x3c05191f	0.008123665
86	0x3c4211b5	0.011845042
87	0x3b7a6bb7	0.0038211176
88	0xbb7051dd	-0.0036669888
89	0xbca24e51	-0.019812735
90	0x3bde0e12	0.0067765797
91	0x3b1edd55	0.002424081
92	0x3c0b94cc	0.008519363
93	0xbc9d3d55	-0.019194284
94	0xbd02fed2	-0.031981297
95	0xb9f300f6	-0.00046349288
96	0xbcfc608b	-0.030807754
97	0x3b895ade	0.0041917404
98	0x3c8e6f4c	0.017387055
99	0x3c978c7b	0.018499603
100	0x3cf0671f	0.029346047
101	0xbbb60bb6	-0.0055555953
102	0xbcada9b9	-0.021199094
103	0x3d111fb7	0.035430636
104	0xbb4b928e	-0.0031062695
105	0xbc250120	-0.010071069
106	0xbb937b4f	-0.0045007835
107	0x3cbc5c18	0.022993132
108	0xbb8698d4	-0.004107574
109	0x3c5e002c	0.013549846
110	0xbc5badf6	-0.013408175
111	0x3ca23b4d	0.019803667
112	0xbbf31608	-0.007418398
113	0x3cf51468	0.029916957
114	0x3b747bfb	0.0037305343
115	0x3cf6e5dd	0.030138904
116	0xbc9e17a9	-0.019298391
117	0x3cd899e9	0.026440578
118	0xbcc78ec9	-0.024360077
119	0xbcf493cd	-0.029855633
120	0x3c807d05	0.015684614
121	0xbc8d5d15	-0.017256299
122	0xbce864bc	-0.028368346
123	0x3a97e6b1	0.0011589137
124	0x3c959590	0.018259794
125	0xbc199e00	-0.009376049
126	0xbb94c57d	-0.004540144
127	0xbbc450d9	-0.005991083
128	0x3d04a08d	0.032379676
129	0xba97055b	-0.0011521982
130	0x3c0ad9b4	0.008474756
131	0x3d17fc0c	0.037105605
132	0x3cf2299a	0.029560853
133	0x3c99800a	0.018737812
134	0xbca0841d	-0.019594247
135	0xbcebe4b5	-0.02879558
136	0xbc3926f9	-0.011300796
137	0xbcc605a9	-0.02417262
138	0x3b96062d	0.004578373
139	0x3cd26b37	0.02568589
140	0x3a9b0e9d	0.0011829917
141	0xbc5b18e7	-0.013372636
142	0x3d153062	0.036423095
143	0xbc2af50a	-0.010434398
144	0xbc793c15	-0.015212079
145	0xb9fb4593	-0.00047926288
146	0x3d00047b	0.031254273
147	0xbba108be	-0.004914372
148	0xbc26ec61	-0.010188193
149	0x3b3bd4ea	0.0028660842
150	0x3c5f0b06	0.013613468
151	0x3cbb25b9	0.022845136
152	0x3c9c36d4	0.019069113
153	0xbceac68a	-0.028659124
154	0x3cfe2d04	0.031027324
155	0xbc7ac91a	-0.015306735
156	0x3ccab34e	0.024743702
157	0x3ce99569	0.028513627
158	0xbcd99602	-0.026560787
159	0x3b20549a	0.002446449
160	0x3cb67891	0.022274287
161	0xbd0133a5	-0.031543393
162	0x3c0b96cd	0.00851984
163	0xbca77ff0	-0.020446748
164	0x3d07b031	0.033127014
165	0x3ca8052b	0.020510277
166	0x3c946843	0.018116122
167	0x3d025371	0.031817857
168	0xbc4b901d	-0.012424496
169	0xbc162c50	-0.009165838
170	0xbbbaae74	-0.005697066
171	0xbcd5ad76	-0.02608369
172	0xbce9fd0d	-0.028563047
173	0x3c3dd16c	0.011585575
174	0xbcfc3c99	-0.030790614
175	0xbcd8ffef	-0.026489226
176	0xbc87e26d	-0.01658746
177	0xbca64c01	-0.020299913
178	0x3cacc6d9	0.021090912
179	0x3d0e03f5	0.034671742
180	0xbca75b22	-0.020429198
181	0xbd04bba5	-0.032405514
182	0x3d017883	0.03160907
183	0xbcdf2498	-0.027239129
184	0xbc1bf6aa	-0.0095192585
185	0xbc1aa6be	-0.0094391685
186	0xbc9b3332	-0.01894531
187	0x3bbb56a1	0.005717114
188	0xbba0f4e2	-0.004912005
189	0x3c7f364e	0.015576912
190	0xbc910f8e	-0.017707612
191	0xbcdfe3bd	-0.027330274
192	0x3b327c13	0.0027234599
193	0x3b44a1b4	0.003000361
194	0x3b2746a5	0.0025524285
195	0xbc290019	-0.010314965
196	0xbb9c8c06	-0.0047774343
197	0x3c0917a4	0.008367453
198	0x3c553482	0.013013007
199	0xbcc36013	-0.023849523
200	0x3cdfa5a7	0.027300669
201	0xbc510e4b	-0.012759755
202	0x3c9e2785	0.019305954
203	0xbc92a39a	-0.017900277
204	0xbc86b208	-0.016442314
205	0x3bc741b1	0.006080829
206	0xbce9c942	-0.02853835
207	0xbceeb545	-0.02913917
208	0xbc65675e	-0.014001695
209	0x3d06226b	0.032747667
210	0xbab878c4	-0.0014074077
211	0xbce7214c	-0.02821412
212	0x3cca7a67	0.02471657
213	0x3d13c252	0.03607399
214	0x3d22d30c	0.03975205
215	0xbcc89859	-0.024486708
216	0xbc2c4aba	-0.010515863
217	0xbb866e38	-0.0041024946
218	0x3c0f700a	0.00875474
219	0x3c3cb6b0	0.0115181655
220	0x3cd1433d	0.025544757
221	0xbc2972f0	-0.010342345
222	0x3ce014ae	0.02735361
223	0x3d03a8a8	0.032143265
224	0x3d1bdfa9	0.038055096
225	0x3ca13a7b	0.019681206
226	0xbc8d132f	-0.017221062
227	0x3ca04318	0.019563243
228	0xbb8515bd	-0.0040614293
229	0x3cf7dab6	0.030255657
230	0xbcfa2346	-0.030534398
231	0xbce41896	-0.027843755
232	0xbbdd13db	-0.0067467517
233	0x3bef849e	0.0073095104
234	0x3d044c6c	0.032299444
235	0x3a60dee5	0.0008578136
236	0x3c57888b	0.013155113
237	0x3d045197	0.032304373
238	0x3d0e9968	0.03481427
239	0x3ca7ce9d	0.020484263
240	0xbced0431	-0.028932663
241	0xbc59ae78	-0.0132862255
242	0x3d1f3e11	0.03887755
243	0x3c57485d	0.013139811
244	0xbca99200	-0.020699501
245	0xbc0c4ef2	-0.008563744
246	0xbc9e122b	-0.019295773
247	0x3c7f9099	0.01559844
248	0x3c1b25d3	0.009469467
249	0x3cc3e86b	0.023914536
250	0x3d0459dc	0.03231226
251	0xbc5afde7	-0.013366199
252	0xbc127ed1	-0.008941368
253	0x3c7b8e7f	0.015353798
254	0x3bb287ee	0.005448333
255	0xbcf0face	-0.029416468

9.bias f4 [8]
0	0x3ca0074f	0.019534735
1	0xbb91ac4d	-0.0044455887
2	0x3c936b52	0.01799551
3	0xbc8e095d	-0.01733845
4	0xbc04aa30	-0.0080972165
5	0xbcc66516	-0.024218123
6	0x3c91852a	0.017763693
7	0xbcb94607	-0.0226164

10.weight f4 [8]
0	0x3f7fe365	0.9995635
1	0x3f8046ca	1.0021603
2	0x3f7f2fbf	0.9968223
3	0x3f829dfc	1.0204463
4	0x3f8028ba	1.0012429
5	0x3f7cd65e	0.987646
6	0x3f7cef14	0.98802304
7	0x3f7ff23c	0.99978995

10.bias f4 [8]
0	0xbb053636	-0.0020326502
1	0xbc1b1916	-0.00946643
2	0xbbef577a	-0.007304129
3	0x3b7edd89	0.003888937
4	0xb89de31c	-7.528646e-05
5	0xbc260572	-0.010133134
6	0xbc39b808	-0.01133538
7	0x3ac3180e	0.0014884488

10.running_mean f4 [8]
0	0x3eeb4d0f	0.4595723
1	0x3e3ac7fa	0.18240348
2	0x3eb091bc	0.34486187
3	0x3c975e91	0.01847771
4	0x3ef5c150	0.47999048
5	0x3e3ee69e	0.18642661
6	0xbeeb31f2	-0.45936543
7	0xbeec7e55	-0.46190134

10.running_var f4 [8]
0	0x3f66e9e7	0.90200657
1	0x3ead9ab9	0.33907107
2	0x3e2d7336	0.1693848
3	0x3cc5406b	0.024078568
4	0x3f245f7c	0.642082
5	0x3ec5ff64	0.3867141
6	0x3f743b9f	0.95403475
7	0x3f1a8141	0.60353476

13.weight f4 [4, 8, 5, 5]
0	0xbd49ac9d	-0.049236882
1	0xbcffec74	-0.03124068
2	0x3d1cb25a	0.038256027
3	0x3d99954a	0.07499178
4	0x3ca04935	0.019566158
5	0xbcf5d34d	-0.030007983
6	0xbd4269bd	-0.04746412
7	0xbd867608	-0.065654814
8	0xbce62868	-0.02809544
9	0x3d33b6c5	0.043875474
10	0x3ba7b5a4	0.005118089
11	0x3d68e58a	0.05685953
12	0x3c453076	0.01203548
13	0xbd6c7ab9	-0.057734225
14	0x3d92fc39	0.07177014
15	0x3d3c23ba	0.04593251
16	0xbb4b6476	-0.0031035221
17	0xbd5cb480	-0.053883076
18	0x3d134901	0.035958294
19	0xbd10cf0f	-0.035353716
20	0x3d54b858	0.051933616
21	0x3b8ff29c	0.004392935
22	0xbd380be1	-0.044933204
23	0xbd57a6f1	-0.052649442
24	0x3cafb2d8	0.021447584
25	0xbd479eb6	-0.048735343
26	0xbc67db12	-0.0141513515
27	0xbcb72671	-0.022357197
28	0x3d81ef5c	0.06344482
29	0x3d276b3c	0.04087375
30	0xba3cacd5	-0.0007197385
31	0x3ba2a709	0.00496376
32	0x3c8e3b9a	0.017362405
33	0xbcd6cf60	-0.026221931
34	0xbce04bfc	-0.027379982
35	0x3d1d391e	0.03838455
36	0x3d316a85	0.043314476
37	0x3bb93910	0.0056525543
38	0xbd2e7303	-0.042590152
39	0xbd7acb2a	-0.06122891
40	0xbd399c4a	-0.045315064
41	0x3d52fc19	0.05150995
42	0x3a55cb97	0.00081556424
43	0x3d346fd8	0.044051975
44	0x3d86eb02	0.06587793
45	0xbcab4e26	-0.020911288
46	0xbc9e306e	-0.019310202
47	0x3ce42bbc	0.027852885
48	0x3d180160	0.037110686
49	0xbd2018ea	-0.03908626
50	0xbd15c25d	-0.036562312
51	0xbc26f373	-0.010189879
52	0x3d82aa17	0.06380098
53	0x3c68c3c9	0.014206835
54	0xbd579133	-0.052628707
55	0xbd2081c6	-0.03918626
56	0x3d06cb52	0.032908745
57	0x3c2a4678	0.010392778
58	0x3cdd0052	0.026977692
59	0x3d1e8b5e	0.03870713
60	0xbb5aa0a1	-0.0033359902
61	0xbc047561	-0.008084626
62	0xbd741374	-0.059588864
63	0x3bce8511	0.006302484
64	0x3c30645d	0.010766116
65	0xb9812dd9	-0.00024638957
66	0x3c962a17	0.018330617
67	0x3d41035b	0.04712234
68	0x3d25164c	0.040304467
69	0x3d48e67b	0.04904793
70	0xbc3b7741	-0.011442007
71	0xbd500657	-0.050787296
72	0x3d88ab7e	0.066733345
73	0xbd5afac6	-0.053461812
74	0x3bbc6f4e	0.0057505732
75	0xbcd99373	-0.026559567
76	0x3da9ee10	0.0829736
77	0xbd15fce9	-0.036618147
78	0x3d925f33	0.07147064
79	0x3d0bcec3	0.03413273
80	0x3c809d9e	0.015700158
81	0x3c1a83a0	0.009430796
82	0xbd836dca	-0.06417425
83	0xbd27f66b	-0.041006487
84	0xbd0df4d3	-0.03465731
85	0x3cb07006	0.021537792
86	0x3d18e77f	0.037330147
87	0x3d4989a1	0.04920352
88	0xbc472d94	-0.012156863
89	0x3d0f7295	0.035021383
90	0xbd0bfa9e	-0.034174554
91	0xbc8af9ee	-0.016964879
92	0xbd6e2450	-0.0581401
93	0x3c5bf17e	0.013424275
94	0xbd6a923a	-0.05726836
95	0x3d72ef38	0.059310168
96	0xbbe508fb	-0.006989596
97	0x3d97f936	0.0742058
98	0xba9178ca	-0.001109862
99	0x3d151246	0.03639438
100	0xbcea1df0	-0.028578728
101	0xbc95f460	-0.018305004
102	0x3d739155	0.05946477
103	0xbc30e1c2	-0.010796012
104	0x3bf23b9b	0.0073923594
105	0x3d7837a2	0.06059993
106	0x3d8ccde6	0.068752095
107	0x3cc250e9	0.023720222
108	0x3c9dd34d	0.019265795
109	0xbd2eb8e8	-0.04265681
110	0xbd338b1c	-0.043833837
111	0xbd00f06d	-0.031479288
112	0xbc84282a	-0.016132433
113	0xbbad6f7c	-0.005292831
114	0x3cb1ae4d	0.021689558
115	0x3b358fa4	0.0027704025
116	0x3d816408	0.063179076
117	0xbd000578	-0.031255215
118	0xbd153204	-0.03642465
119	0xbcdc3525	-0.02688081
120	0xbd811adf	-0.063039534
121	0xbd2c49a3	-0.042062413
122	0x3c0fc719	0.008775496
123	0xbd6f965c	-0.058493003
124	0x3d172a0b	0.03690533
125	0x3d24e7b1	0.04026002
126	0xbd53b5ca	-0.05168704
127	0xba8f7421	-0.0010944643
128	0xbc78b7c1	-0.015180529
129	0xbd4726c5	-0.048620958
130	0xbc21300d	-0.009838116
131	0xbc507080	-0.012722135
132	0x3d8b86c9	0.068128176
133	0xbd6b3c85	-0.057430763
134	0xbc75a1ca	-0.014992187
135	0x3d7c19b6	0.061547957
136	0xbd8c87a4	-0.06861809
137	0x3c8bffc3	0.01708973
138	0xbc3211f6	-0.01086854
139	0xbd5e5351	-0.054278675
140	0x3d7c4935	0.061593253
141	0x3d7b8af3	0.06141181
142	0x3cf24f0a	0.029578704
143	0xbd33b391	-0.04387242
144	0xbcabd574	-0.020975806
145	0x3c32d054	0.010913927
146	0xbad387ec	-0.001613853
147	0x3c9bca7b	0.019017449
148	0xbd408a4b	-0.047006886
149	0xbce44f0f	-0.02786973
150	0x3c86a08d	0.016433978
151	0x3c089cff	0.008338212
152	0xbc975958	-0.01847522
153	0x3d438347	0.047732618
154	0x3d40b510	0.047047675
155	0xbd3fda91	-0.0468393
156	0xbd644c59	-0.055736873
157	0x3ba9036e	0.0051578796
158	0xbd0e056d	-0.034673143
159	0x3d6b7504	0.05748464
160	0xbd6c5039	-0.057693694
161	0x3d85c121	0.06530977
162	0x3d18fbf6	0.037349664
163	0x3c89ab40	0.016805291
164	0xbc942e5b	-0.01808851
165	0xbc1a0ccd	-0.009402466
166	0x3ca78cec	0.020452939
167	0x3b5c4a4d	0.0033613623
168	0x3af96994	0.0019028657
169	0xbcea5e91	-0.028609546
170	0x3d91329b	0.0708973
171	0xbbcc72dc	-0.0062392782
172	0xbc5c9a30	-0.013464496
173	0x3d5969cc	0.05307941
174	0xbd753823	-0.05986799
175	0x3c69a2e5	0.0142600285
176	0x3d3d3999	0.046197508
177	0x3d2522ec	0.040316507
178	0xbd3cb446	-0.04607036
179	0xbd8db4c9	-0.06919248
180	0xbabc4f35	-0.0014366867
181	0x3d8075e6	0.06272487
182	0xbcf5dd89	-0.030012863
183	0x3d848796	0.064711735
184	0xbd30551f	-0.043049928
185	0xbd12bb25	-0.035823006
186	0x3cfed870	0.031109065
187	0xbd5262a6	-0.05136361
188	0xbc320baa	-0.010867039
189	0x3c8fe64b	0.017565867
190	0xbd4f2376	-0.050570928
191	0xbcc12011	-0.02357486
192	0x3c2c9448	0.0105334
193	0x3cc5f5f8	0.024165139
194	0xbadafd91	-0.0016707649
195	0x3b5effca	0.0034026974
196	0xbcc23f6d	-0.023711884
197	0x3b50aaa5	0.0031839993
198	0xbd193fc7	-0.03741434
199	0x3ba1d184	0.0049383063
200	0x3c33f559	0.010983788
201	0xbd391550	-0.04518634
202	0xbc9ee6b9	-0.019397127
203	0xbd494336	-0.049136363
204	0x3d4cd72b	0.050009888
205	0xbc0d0b3c	-0.0086086355
206	0x3bdf49ea	0.006814231
207	0xb9e61625	-0.00043885518
208	0x3d5f2d62	0.05448664
209	0xbd3966b9	-0.04526398
210	0x3c9a2531	0.018816562
211	0x3c711eaf	0.014716788
212	0xbd31d4e5	-0.043415923
213	0x3d4db02a	0.05021683
214	0xbc759806	-0.0149898585
215	0x39c2f188	0.00037182518
216	0x3d4471d9	0.047960136
217	0x3a937ecf	0.0011253002
218	0xbd45c9cf	-0.048288163
219	0x3cd412d9	0.025887894
220	0x3d4adbf2	0.049526162
221	0xbd9f1724	-0.077680856
222	0xbd52a136	-0.051423274
223	0x3d79ff77	0.061034646
224	0xbd128041	-0.035766844
225	0xbd087dc9	-0.033323083
226	0x3d7a1729	0.061057243
227	0xbd47a093	-0.04873712
228	0xbd3be600	-0.045873642
229	0xb9490072	-0.0001916902
230	0xbd4bc523	-0.04974855
231	0x3cc4607c	0.023971789
232	0x3c016b6a	0.007899145
233	0xb9dc5909	-0.00042028006
234	0x3afe0f9c	0.0019383314
235	0x3d2ea803	0.042640697
236	0x3cccd521	0.025003972
237	0x3d897bc3	0.06713059
238	0xbd230197	-0.039796438
239	0xbd4eeefb	-0.05052088
240	0xbd129212	-0.035783835
241	0x3d2eb489	0.04265264
242	0x3d47f699	0.04881916
243	0xbd406b50	-0.04697734
244	0x3d7c2c2b	0.06156556
245	0x3d7a01a6	0.06103673
246	0x3d872021	0.06597925
247	0x3d9e20fb	0.07721134
248	0x3da22c72	0.079186335
249	0x3d0015ae	0.031270675
250	0xbcef7d46	-0.02923454
251	0x3d1cc6b5	0.03827544
252	0xbd7fbdba	-0.062436797
253	0x3d372ad9	0.044718597
254	0xbc69173d	-0.014226732
255	0xbd13b46a	-0.036060728

13.bias f4 [4]
0	0xbcbc7ba9	-0.023008185
1	0xbd529080	-0.051407337
2	0x3d85a9a6	0.065264985
3	0x3cc42b69	0.02394648

14.weight f4 [4]
0	0x3f86fe69	1.054639
1	0x3f7faafc	0.99870276
2	0x3f80b154	1.0054116
3	0x3f7c6535	0.9859193

14.bias f4 [4]
0	0x3d4b540b	0.049640696
1	0xbc7fc7ab	-0.015611569
2	0xbc3f7107	-0.011684663
3	0xbc5687a3	-0.013093862

14.running_mean f4 [4]
0	0x3d863527	0.06553107
1	0xbdacfb7d	-0.08446405
2	0x3cf78db0	0.030218929
3	0x3e311047	0.17291366

14.running_var f4 [4]
0	0x3cec7b8d	0.028867507
1	0x3e8983e2	0.2685843
2	0x3e6a59b7	0.22885786
3	0x3f088753	0.5333149

17.weight f4 [1, 4, 3, 3]
0	0xbd9f88de	-0.07789777
1	0x3d80e30c	0.06293306
2	0x3d92fbb7	0.07176917
3	0xbe2f475f	-0.1711707
4	0x3d00f2fa	0.03148172
5	0xbe3f08d0	-0.18655705
6	0xbe207861	-0.15670921
7	0xbe38feed	-0.18065996
8	0xbe355700	-0.17708969
9	0xbe20cab0	-0.15702319
10	0x3cd9a677	0.026568634
11	0xbcde21ff	-0.02711582
12	0x3dc7dc80	0.09758854
13	0x3dd633a1	0.10459066
14	0x3ddbafd0	0.10726893
15	0xbd4fe498	-0.050755113
16	0x3e0c66bd	0.13711067
17	0x3d1dfe63	0.03857268
18	0x3dfc5333	0.123205565
19	0x3e0f1998	0.13974607
20	0xbe0afd94	-0.13573295
21	0x3dcf0393	0.101081036
22	0x3e028fac	0.12750119
23	0xbe0415cd	-0.12898941
24	0x3c19144b	0.009343217
25	0xbd88ecca	-0.06685789
26	0x3dbadcc1	0.09124137
27	0xbccdba12	-0.02511314
28	0xbc19b4d1	-0.009381489
29	0x3d80231d	0.06256697
30	0xbdb2460d	-0.087047674
31	0xbc853db5	-0.016264776
32	0x3d950266	0.07275848
33	0xbe1af097	-0.1513084
34	0x3dce1ae9	0.100637265
35	0x3d104740	0.0352242
