model1.pth (torch, 55998 bytes, 31 tensors)

0.weight f4 [8, 3, 3, 3]
0	0x3cb3e045	0.021957526
1	0xbb0d45df	-0.002155654
2	0xbd78374a	-0.060599603
3	0x3e14aefa	0.14519873
4	0x3e17a915	0.14810593
5	0x3e08e2a7	0.13367711
6	0x3bb69324	0.0055717397
7	0xbe481c77	-0.19542108
8	0x3e0c89af	0.13724397
9	0xbd3cb39a	-0.04606972
10	0xbdd3d488	-0.103432715
11	0x3d861116	0.06546228
12	0xbe2b34f0	-0.16719413
13	0xbe061c41	-0.13096716
14	0xbdf7b8d3	-0.12095799
15	0x3d996bb3	0.07491245
16	0xbd6b3778	-0.057425946
17	0xbd4a560f	-0.049398478
18	0x3df5e67c	0.12006852
19	0x3d19410c	0.03741555
20	0x3e03c6ec	0.12868851
21	0xbdc64b77	-0.096823625
22	0x3d0de735	0.034644324
23	0xbc4e67b1	-0.012597964
24	0xbe20e38f	-0.15711807
25	0xbd9df2c6	-0.07712321
26	0xbddb9099	-0.10720939
27	0x3ce648e3	0.028110927
28	0x3d9153d9	0.07096071
29	0xbddbca6e	-0.1073197
30	0xbda2c055	-0.07946841
31	0x3ddc90a0	0.107697725
32	0xbe2984f9	-0.16554631
33	0x3e0f99e1	0.14023544
34	0xbe0aa12b	-0.13538043
35	0xbca74278	-0.020417437
36	0xbdf962fd	-0.12177084
37	0xbe146315	-0.14490922
38	0xbe1c2fdd	-0.15252633
39	0x3d706fdd	0.05870043
40	0x3d5db930	0.054131687
41	0xbde4c6cc	-0.1117073
42	0xbda3224a	-0.079655245
43	0x3e2c2726	0.16811809
44	0x3e0184c0	0.12648296
45	0x3d3783f9	0.044803593
46	0xbce26077	-0.027633889
47	0x3da97ea0	0.08276105
48	0x3e2c5d47	0.16832457
49	0x3d74ecae	0.059796028
50	0xbe357686	-0.17720994
51	0x3dd2506e	0.10269247
52	0x3dca431a	0.0987608
53	0x3e33d10a	0.17560211
54	0x3e1acbaf	0.15116762
55	0xbd11d433	-0.03560276
56	0xbd5bd6bf	-0.053671595
57	0x3e280ba5	0.16410692
58	0xbd0ad0ad	-0.033890415
59	0x3d6981cc	0.05700855
60	0xbcd4d118	-0.02597861
61	0xbe4cb08a	-0.1998922
62	0xbe31375a	-0.17306271
63	0x3cd6e50c	0.026232265
64	0xbc620cc8	-0.013796993
65	0xbd4d840e	-0.050174765
66	0xbe1f26f6	-0.15542206
67	0x3d0e8931	0.034798805
68	0x3d34e6f4	0.044165567
69	0xbd2c5d1c	-0.042080984
70	0xbce41dae	-0.027846184
71	0x3e1e5970	0.15463805
72	0xbd0dc47f	-0.03461122
73	0x3e3457e5	0.17611654
74	0x3e5448cc	0.20730895
75	0x3e43788e	0.19088957
76	0x3d17c8d9	0.037056778
77	0x3e3e2c7b	0.18571655
78	0xbd91b1c6	-0.07113986
79	0x3e2a1443	0.16609292
80	0x3ddb9547	0.10721832
81	0xbda8dd21	-0.08245302
82	0x3e2312a5	0.15925081
83	0x3d908bcd	0.07057915
84	0xbe22b7db	-0.15890448
85	0xbceff6f8	-0.029292569
86	0xbd4d5d06	-0.050137542
87	0x3e05771c	0.13033718
88	0x3e0530a7	0.1300684
89	0xbde41822	-0.111374155
90	0xbe19a6cd	-0.15005036
91	0x3da536a4	0.080670625
92	0x3e1038c8	0.1408416
93	0xbcc90f29	-0.024543362
94	0xbdc3f6cf	-0.095685594
95	0xbe389c2e	-0.18028328
96	0xbd0828d0	-0.033242047
97	0xbc803e70	-0.015654773
98	0xbe4cca71	-0.199991
99	0xbc004e17	-0.007831118
100	0x3e2922ca	0.16517177
101	0xbe020300	-0.12696457
102	0x3dd7467f	0.10511493
103	0x3da3e171	0.08001984
104	0x3e09bb5c	0.13450378
105	0x3e030e7d	0.12798496
106	0x3cf53a69	0.029935079
107	0x3b07a51a	0.0020697773
108	0x3e18485f	0.14871357
109	0xbcd3af5a	-0.02584045
110	0xbe4005a3	-0.1875215
111	0x3dbeaf89	0.093108244
112	0x3e2d3cd2	0.16917732
113	0x3dd23017	0.10263079
114	0xbdea8342	-0.11450817
115	0x3d068479	0.03284118
116	0x3de1ad97	0.11019438
117	0xbe1c6044	-0.15271097
118	0x3d0515c6	0.032491468
119	0xbe307611	-0.17232539
120	0xbd388744	-0.045050874
121	0xbe0e7c07	-0.139145
122	0x3ddcddad	0.10784469
123	0x3cd97b29	0.026547985
124	0x3d924e2a	0.07143815
125	0xbcc38eaa	-0.023871738
126	0x3d890eac	0.066922516
127	0xbd33f230	-0.04393214
128	0x3e1e412d	0.1545455
129	0xbde7e125	-0.1132224
130	0xbc4da08a	-0.0125504825
131	0xbccb981e	-0.024852809
132	0x3dce7d08	0.100824416
133	0xbb779634	-0.0037778737
134	0xbd2c858d	-0.04211955
135	0x3da086a7	0.07838183
136	0x3cdecfe2	0.027198736
137	0x3d193227	0.037401345
138	0x3c1954a4	0.009358559
139	0xbda0c1be	-0.078494534
140	0x3e28d51e	0.16487548
141	0xbe7562e4	-0.23963505
142	0x3de889d0	0.11354411
143	0x3d34b5c2	0.04411865
144	0x3dd955d3	0.10612073
145	0x3e47e52b	0.19521014
146	0xbd8d598b	-0.069018446
147	0xbe073ff0	-0.13207984
148	0x3d3235d5	0.04350837
149	0x3d0579cd	0.03258686
150	0xbe6e2961	-0.23257972
151	0xbd5f977b	-0.054587822
152	0x3e208cfa	0.15678778
153	0xbd649254	-0.055803612
154	0x3dc7e874	0.09761134
155	0x3aa5725f	0.0012622586
156	0x3d99eab6	0.07515471
157	0x3cd1303d	0.025535697
158	0xbdd77279	-0.10519881
159	0xbdf15e30	-0.11785543
160	0x3de14665	0.10999755
161	0x3d4bcaf5	0.0497541
162	0x3dc1b596	0.09458463
163	0x3cbd8190	0.02313307
164	0xbde41f55	-0.111387886
165	0xbe20f54b	-0.15718572
166	0xbd8af176	-0.06784336
167	0x3db53284	0.08847526
168	0x3d148e53	0.036268543
169	0xbdea75da	-0.1144826
170	0x3e27a357	0.16370903
171	0x3e494b60	0.1965766
172	0xbd5a74cb	-0.05333404
173	0x3e43c253	0.19117098
174	0x3d2bfe0a	0.041990317
175	0xbc890bcb	-0.016729256
176	0x3e00a10a	0.12561432
177	0x3b3b6950	0.0028596707
178	0x3dc8b8e9	0.09800894
179	0x3d25deae	0.040495567
180	0xbe0d5671	-0.13802506
181	0xbdaa86d1	-0.083264954
182	0x391412c8	0.00014121376
183	0xbdab7036	-0.08371012
184	0x3e4ee91b	0.2020611
185	0x3d6bd3cf	0.057575043
186	0x3d85d3e5	0.06534556
187	0xbe2cd36d	-0.16877528
188	0xbe1841ad	-0.14868803
189	0x3d266dec	0.040632173
190	0x3aae4bfd	0.0013297793
191	0xbcd9e05d	-0.026596243
192	0x3e114f54	0.14190418
193	0xbd1f8f7a	-0.03895519
194	0x3ccf7d48	0.025328293
195	0xbd57548f	-0.052570876
196	0x3e00f271	0.12592484
197	0x3e68c108	0.22729886
198	0xbe28085d	-0.1640944
199	0x3c79fdce	0.015258266
200	0xbd9e0532	-0.07715835
201	0xbe07ab06	-0.13248834
202	0x3de92fc6	0.11386065
203	0x3dd04522	0.10169436
204	0xbd00105a	-0.031265594
205	0x3e0d9b7e	0.13828847
206	0xbc8691af	-0.01642689
207	0xbd606ba3	-0.05479015
208	0xbde344f4	-0.11097136
209	0x3cbd7bd3	0.023130333
210	0xbc9816a0	-0.018565476
211	0xbc80bf17	-0.015716119
212	0x3ce89220	0.02838999
213	0x3e3bc78f	0.18337844
214	0xbd41195a	-0.047143318
215	0xbd3d94ed	-0.046284605

0.bias f4 [8]
0	0x3e56ce63	0.20977168
1	0x3e15a16d	0.1461236
2	0x3d9241e1	0.07141472
3	0x3cf18d07	0.029486192
4	0xbe2ed393	-0.17072897
5	0xbe0c9342	-0.1372805
6	0x3d7ac381	0.061221603
7	0x3e1f57af	0.15560792

1.weight f4 [8]
0	0x3f80bb7e	1.0057218
1	0x3f7d7719	0.99009854
2	0x3f7b4a69	0.98160416
3	0x3f847552	1.0348303
4	0x3f7e3c2c	0.99310565
5	0x3f82edf6	1.022887
6	0x3f82d342	1.0220721
7	0x3f768c07	0.96307415

1.bias f4 [8]
0	0x3c591597	0.013249776
1	0x3ca371d1	0.019951733
2	0xbc149b8e	-0.00907029
3	0x3d6fd0c1	0.058548693
4	0xbd238ae9	-0.039927397
5	0xbba0d66a	-0.0049083726
6	0xbcc5b6a5	-0.024134943
7	0xbd00ad83	-0.031415474

1.running_mean f4 [8]
0	0x3f097505	0.5369418
1	0x3e1e759a	0.15474549
2	0xbf2301fe	-0.63674915
3	0x3d447cf1	0.047970716
4	0xbea55a81	-0.32295612
5	0xbec39db1	-0.38206246
6	0xbead64b9	-0.33865908
7	0xbe9696bc	-0.29411876

1.running_var f4 [8]
0	0x3e8a33f3	0.2699276
1	0x3dc73096	0.09726064
2	0x3fb00959	1.3752853
3	0x3d7a4e14	0.061109617
4	0x3d39c862	0.045357116
5	0x3e236c23	0.1595922
6	0x3e935ad4	0.28780234
7	0x3eb80bc5	0.3594648

3.weight f4 [16, 8, 3, 3]
0	0x3dbdefdd	0.09274266
1	0xbcc489c9	-0.023991482
2	0xbd0fa5d3	-0.03507025
3	0x3c81af2d	0.0158306
4	0x3d957e20	0.07299447
5	0x3d033c3c	0.032039866
6	0xbcd8fa12	-0.02648643
7	0xbd5abfd4	-0.053405598
8	0x3db2004e	0.08691464
9	0x3bb69025	0.0055713826
10	0x3daeb62f	0.085308425
11	0x3dc2937f	0.09500789
12	0x3d4a0fff	0.04933166
13	0x3cad3352	0.021142635
14	0x3db747c6	0.089492366
15	0xbc8738e2	-0.016506616
16	0x3d88ebc8	0.06685597
17	0xbd1c609d	-0.038178075
18	0x3d482cd1	0.048870865
19	0xbb8e303f	-0.0043392475
20	0x3d89347f	0.06699466
21	0x3da09621	0.07841135
22	0xbd88cbda	-0.066795066
23	0x3d7991cc	0.06093006
24	0x3dcb1802	0.099166885
25	0x3d8b7e0d	0.06811152
26	0xbda64395	-0.08118359
27	0x3c704aa2	0.014666231
28	0x3dd9a416	0.10627
29	0x3dad7f76	0.08471577
30	0x3e03bda4	0.12865311
31	0xbc06c210	-0.008224979
32	0x3e0718b4	0.13193017
33	0x3da570c7	0.08078151
34	0x3cdd1510	0.026987582
35	0x3dc3edf1	0.09566868
36	0x3e048f15	0.12945206
37	0xbc83b8ee	-0.016079392
38	0x3d300e3e	0.042982332
39	0x3dcfeb6c	0.10152325
40	0x3df840c8	0.12121731
41	0x3d63f975	0.055657823
42	0xbd8460cf	-0.06463777
43	0xbd769447	-0.060200002
44	0xbcd8c505	-0.026461134
45	0xbda1ce97	-0.07900732
46	0xbddda54a	-0.10822542
47	0xbdb67d0d	-0.0891057
48	0x3dae5bf6	0.08513634
49	0xbc179919	-0.00925281
50	0x3deadbc3	0.114676975
51	0xbdbdd395	-0.09268872
52	0x3d438638	0.047735423
53	0xbd3e8b63	-0.04651965
54	0x3ddb9db7	0.10723441
55	0xbdc81563	-0.09769704
56	0x3dadbae6	0.08482914
57	0x3d978ee1	0.07400299
58	0x3d072de4	0.03300275
59	0xbd3ab40e	-0.04558187
60	0xbde64f11	-0.112455495
61	0xbbe62f7e	-0.0070247045
62	0x3de8f0eb	0.113740765
63	0x3c597786	0.0132731255
64	0xbd1c56c2	-0.038168676
65	0x3d5519f2	0.052026697
66	0x3d6896e4	0.056784526
67	0xbd1436dc	-0.03618513
68	0x3db8990d	0.09013567
69	0xbced9559	-0.029001879
70	0x3cf844ff	0.030306337
71	0x3d59c372	0.053164907
72	0xbd2fb626	-0.04289832
73	0xbd83a4c1	-0.06427909
74	0x3df98aeb	0.121846996
75	0xbd90f78b	-0.07078465
76	0x3de679d1	0.112537034
77	0xbbaff7f3	-0.005370134
78	0x3dc248c2	0.09486534
79	0xbd6d78e4	-0.05797662
80	0x3dca2504	0.098703414
81	0x3bf83c49	0.007575546
82	0x3d37f2e3	0.04490937
83	0xbbc7c3c9	-0.0060963375
84	0x3dcd0d69	0.100123234
85	0xbd3f6c05	-0.046733875
86	0x3d49b0f2	0.049241014
87	0xbbfc31ff	-0.0076963897
88	0x3dbb9315	0.09158913
89	0xbc39ac38	-0.011332564
90	0xbdead772	-0.11466874
91	0xbdf50609	-0.11964042
92	0xbdde85ee	-0.10865389
93	0x3db8475b	0.08997985
94	0xbca6c1b4	-0.020356037
95	0x3c216701	0.009851218
96	0x3c080a38	0.008303218
97	0xbd1e8982	-0.038705356
98	0xbd06ca67	-0.03290787
99	0xbd0ef247	-0.034899022
100	0xbbba5814	-0.0056867693
101	0x3e05016c	0.12988824
102	0xbbab3bb6	-0.005225624
103	0x3d512ee5	0.051070113
104	0x3df69072	0.120392695
105	0x3d6a4de4	0.05720319
106	0x3cae41fb	0.021271696
107	0xbc33e297	-0.010979316
108	0x3d8400a7	0.06445437
109	0xbc679cab	-0.014136474
110	0x3d40fd03	0.04711629
111	0x3da36bc7	0.07979541
112	0x3d69ada2	0.057050355
113	0x3da6f5d1	0.081523545
114	0xbd5507ca	-0.05200938
115	0x3da4a453	0.08039155
116	0xbcbddd56	-0.02317683
117	0x3da83e04	0.082149535
118	0x3b3e56a4	0.002904334
119	0x3db70dbf	0.08938169
120	0x3d6b70b9	0.057480548
121	0x3ca3ffed	0.020019496
122	0xbcb85824	-0.022502966
123	0xbcba996c	-0.022778235
124	0xbcc8242e	-0.024431314
125	0x3def572e	0.1168655
126	0xbdb5b149	-0.08871705
127	0xbdc48552	-0.09595741
128	0x3d9ad84f	0.07560789
129	0x3df8f055	0.12155215
130	0x3ce9046d	0.028444493
131	0x3d930281	0.07178212
132	0xbca78b19	-0.02045207
133	0x3d42c650	0.047552407
134	0x3a9f37e8	0.0012147399
135	0xbd1e2fa2	-0.038619645
136	0x3dba7624	0.09104565
137	0xbbada65a	-0.0052993717
138	0xbde0595b	-0.10954543
139	0xbac9930c	-0.0015378906
140	0x3c74fcf5	0.014952888
141	0x3dc54de4	0.09633997
142	0x3d0fbc65	0.035091776
143	0xbd6cd227	-0.057817604
144	0xbd48bfec	-0.049011156
145	0xbd9ffa16	-0.07811372
146	0xbd74c3a5	-0.059756894
147	0x3d87f470	0.0663842
148	0x3d3fec28	0.046856076
149	0xbdac031b	-0.0839903
150	0x3b6a1e2c	0.003572355
151	0xbc821886	-0.015880834
152	0xbdc3a463	-0.09552839
153	0xbdd5e758	-0.10444516
154	0x3d71b985	0.059014816
155	0x3d8c480f	0.068496816
156	0x3dc6addb	0.09701129
157	0xbd2788d1	-0.040901963
158	0x3ade581c	0.0016963514
159	0x3d7ac707	0.061224964
160	0x3d2c635d	0.042086948
161	0xbd0d6ad7	-0.03452572
162	0x3c4a6555	0.012353261
163	0x3dca45d3	0.09876599
164	0xbd5aae74	-0.053389028
165	0x3de53072	0.11190881
166	0xbc87234a	-0.01649632
167	0xbd98d7a4	-0.07463005
168	0xbd24f580	-0.04027319
169	0xbda32300	-0.0796566
170	0xbcf4fa9d	-0.029904658
171	0x3d63df40	0.05563283
172	0xbdcdb740	-0.10044718
173	0xbd832d70	-0.06405151
174	0x3e114b7c	0.14188951
175	0xbd8f2b89	-0.069907255
176	0x3dc2538a	0.0948859
177	0x3d5eefbf	0.05442786
178	0x3d22a3a4	0.03970684
179	0x3dead7b8	0.11466926
180	0x3d36665e	0.04453122
181	0xbd14264a	-0.036169328
182	0xbd4be2c1	-0.049776796
183	0xbd487c7b	-0.04894684
184	0x3c2f57fa	0.010702128
185	0x3c8c14cc	0.01709976
186	0x3bc38064	0.005966233
187	0xbc2bdc7e	-0.010489581
188	0x3cb7c9d7	0.022435112
189	0x3da94ddd	0.08266804
190	0xbd479a94	-0.0487314
191	0x3dc0f9d8	0.09422654
192	0xbd48ac4e	-0.048992448
193	0x3de84df7	0.113429956
194	0x3da4612b	0.08026346
195	0xbdd53356	-0.10410182
196	0xbb2deb19	-0.0026537834
197	0x3d4bdc72	0.04977078
198	0xbd9ef6a3	-0.07761886
199	0xb815ae3f	-3.5686648e-05
200	0x3c6da3f5	0.014504422
201	0x3e05ff89	0.1308576
202	0x3d3ae1ef	0.045625623
203	0xbcc3139a	-0.023813058
204	0xbd89dd2c	-0.06731638
205	0x3de4899b	0.11159059
206	0x3e023924	0.1271711
207	0xbd6c34b2	-0.05766744
208	0x3dcbdc71	0.09954155
209	0xbd175930	-0.03695029
210	0x3db54f59	0.08853025
211	0xbc4b82f3	-0.012421357
212	0x3cf1ab08	0.0295005
213	0xbd82241d	-0.06354544
214	0x3dc27d35	0.094965376
215	0xbd9f34e7	-0.07773762
216	0x3d6b177c	0.057395443
217	0x3c26399c	0.010145571
218	0x3db0fcb8	0.08641952
219	0xbddd06b0	-0.10792291
220	0xbcee600c	-0.029098533
221	0xbdd2101e	-0.1025698
222	0x3cdd65f1	0.027026149
223	0x3d4835e4	0.04887952
224	0x3cd5cf4d	0.026099825
225	0x3d4c7ccc	0.049923703
226	0xbde0fc36	-0.109856054
227	0xbcad3d21	-0.021147313
228	0xbce0c725	-0.02743871
229	0xbdd2f26d	-0.10300145
230	0x3db26ab9	0.08711762
231	0xbd477824	-0.04869856
232	0xbe0c0b65	-0.13676222
233	0x3d7dfe34	0.062010005
234	0x3d838be1	0.06423164
235	0x3da01163	0.07815816
236	0x3dc8d0f0	0.09805477
237	0xbd8d4d3a	-0.068994954
238	0xbc96f4c4	-0.01842726
239	0x3bbde0fe	0.0057946434
240	0xbd9297b6	-0.07157843
241	0xbe0be483	-0.13661389
242	0x3dbd0e23	0.09231212
243	0x3d0a5d67	0.03378048
244	0xbd63f818	-0.055656523
245	0xbd3f6f6b	-0.046737116
246	0x3de22c01	0.11043549
247	0xbd7ad594	-0.06123884
248	0x3cd666df	0.0261721
249	0x3c35c4aa	0.011094252
250	0xbccb9da2	-0.024855439
251	0xbd51a974	-0.051186994
252	0xbde8e861	-0.11372448
253	0xbdb45af7	-0.08806413
254	0x3d418980	0.04725027
255	0xbbba1203	-0.0056784167

3.bias f4 [16]
0	0x3c0c19fa	0.008551115
1	0xbd70e3c8	-0.05881098
2	0xbbab0116	-0.0052186353
3	0xbdde7b9a	-0.10863419
4	0xbcc257bc	-0.023723476
5	0x3da2f50a	0.07956894
6	0x3da9fef7	0.08300584
7	0xbb8467f6	-0.0040407134
8	0x3d72bbbf	0.05926108
9	0xbd610ce1	-0.054943923
10	0x3cfebc13	0.03109554
11	0x3c6dc49e	0.014512209
12	0xbca6191d	-0.020275647
13	0xbb363726	-0.0027803867
14	0xbd5c1932	-0.053734966
15	0xbdcb3ade	-0.099233374

4.weight f4 [16]
0	0x3f839746	1.028054
1	0x3f80507c	1.0024562
2	0x3f7f374b	0.99693745
3	0x3f84f9d8	1.0388746
4	0x3f800e79	1.0004417
5	0x3f7c39c8	0.9852567
6	0x3f86c966	1.0530212
7	0x3f6f1efb	0.9340665
8	0x3f7edf37	0.9955935
9	0x3f7e0dd8	0.99239874
10	0x3f73c97b	0.9522931
11	0x3f84242e	1.0323541
12	0x3f773074	0.9655831
13	0x3f803de7	1.0018891
14	0x3f79f2f9	0.9763637
15	0x3f7a7d99	0.97847897

4.bias f4 [16]
0	0x3aa7630f	0.0012770611
1	0xbc3984d8	-0.011323176
2	0xbc8961c7	-0.016770257
3	0xbc8149c4	-0.015782245
4	0xba52d503	-0.00080426055
5	0xbd089ff5	-0.033355672
6	0x3d239f8e	0.039947085
7	0xbd9f7591	-0.07786096
8	0xbcc9c0d6	-0.024628084
9	0xbd1f6e85	-0.03892376
10	0xbcd41c64	-0.025892444
11	0x3ce659bc	0.02811896
12	0xbc993f54	-0.018706955
13	0xbd3b64fa	-0.045750596
14	0xbcbc5f12	-0.022994552
15	0xbd1eefd7	-0.038802948

4.running_mean f4 [16]
0	0x3f41d4b8	0.7571521
1	0x3ed7fdd6	0.4218585
2	0x3e5f5618	0.21810186
3	0xbd7d2641	-0.06180406
4	0xbe9223e1	-0.28542998
5	0x3d677b32	0.056513973
6	0x3e1b0aad	0.15140791
7	0xbef4dfbc	-0.47826946
8	0xbdcb8f7c	-0.09939477
9	0xbe5a00b0	-0.21289325
10	0x3d967b35	0.073477186
11	0xbe675eda	-0.22594777
12	0xbe27f515	-0.16402085
13	0xbcadc030	-0.021209806
14	0x3d4188c6	0.047249578
15	0x3e577cad	0.21043654

4.running_var f4 [16]
0	0x3f36bfed	0.71386606
1	0x3e128b54	0.14310962
2	0x3e670c92	0.22563389
3	0x3de5707e	0.11203097
4	0x3e8f87c2	0.28033262
5	0x3e021a22	0.12705281
6	0x3e2024af	0.15638994
7	0x3ee76562	0.45194536
8	0x3dd916cc	0.10600051
9	0x3d6cc3d0	0.05780393
10	0x3df52cbd	0.11971424
11	0x3dce4236	0.100712225
12	0x3e2fb2fa	0.17158118
13	0x3e108982	0.14114955
14	0x3e10c8a5	0.1413904
15	0x3df8c615	0.12147156

6.weight f4 [16, 16, 5, 5]
0	0xbbc64e70	-0.006051831
1	0x3d6bd9c1	0.057580713
2	0x3d188c4c	0.037243173
3	0x3d3d662d	0.04624002
4	0xbc3461e6	-0.011009669
5	0x3d7798e6	0.06044855
6	0x3d7b6dc5	0.06138398
7	0xbaa2dfe8	-0.0012426348
8	0x3d78028b	0.0605493
9	0x3d730bd5	0.059337456
10	0x3d5dcf5e	0.05415284
11	0x3d8a0909	0.067400046
12	0xbc419fbb	-0.011817868
13	0x3da16b69	0.07881815
14	0xbbcd0165	-0.0062562698
15	0x3d42dfb0	0.047576606
16	0x3d84877b	0.06471153
17	0x3cd45bc8	0.025922671
18	0x3d174fd4	0.036941364
19	0xbcb54a77	-0.022130234
20	0xbcb62e4f	-0.022238879
21	0x3d4dd3a5	0.050250668
22	0x3c10ced0	0.00883837
23	0x3d2a21c0	0.041536093
24	0x3d23ea63	0.04001845
25	0x3cff2cf3	0.031149363
26	0x3d849530	0.06473768
27	0x3d3ee3cd	0.046603967
28	0x3d10f6ad	0.0353915
29	0x38985cc7	7.265206e-05
30	0x3b46965e	0.0030302028
31	0x3d603f95	0.054748137
32	0x3cf08c31	0.029363723
33	0x3d4a4f03	0.049391758
34	0x3d6b60f7	0.05746552
35	0x3c8cbb65	0.0171792
36	0x3d4c2949	0.04984406
37	0x3d356e00	0.044294357
38	0x3d1da3fd	0.03848647
39	0x3a99de9d	0.0011739318
40	0x398a1bff	0.0002634227
41	0xbca1072b	-0.019656738
42	0xbc7a2be5	-0.015269254
43	0x3d879bfa	0.06621547
44	0x3d6e73fe	0.058216088
45	0xbb910503	-0.0044256463
46	0x3d427d17	0.047482576
47	0x3c70b190	0.014690772
48	0x3d6a3d43	0.05718733
49	0xbc8fe9dd	-0.01756757
50	0x3d21c903	0.03949834
51	0x3cf757dc	0.030193262
52	0xbd105bd2	-0.035243817
53	0x3cba99b2	0.022778366
54	0xbc3db5cc	-0.011578988
55	0x3d82b14d	0.06381474
56	0x3c081ef4	0.008308161
57	0xbce44af0	-0.027867764
58	0x3d644aeb	0.05573551
59	0x3d172a76	0.03690573
60	0x3d7f7c81	0.062374596
61	0x3ca7084f	0.020389704
62	0x3cb2d3f4	0.021829583
63	0xbce51576	-0.027964335
64	0x3d5dd0f9	0.05415437
65	0x3d849a10	0.064746976
66	0x3bb9a5c3	0.0056655123
67	0x3d148b0b	0.036265414
68	0xbc168404	-0.009186748
69	0x3cd6800c	0.026184104
70	0xbd069306	-0.032855056
71	0x3c996164	0.018723197
72	0xbc9f977c	-0.019481413
73	0x3d1e9af0	0.03872198
74	0x3c96b8d1	0.018398674
75	0x3c37ae42	0.01121098
76	0x3d5fe086	0.05465748
77	0xbc46daa3	-0.012137088
78	0xbcc1b8a4	-0.023647614
79	0x3d0e2525	0.034703393
80	0xbc3da280	-0.011574388
81	0x3d5228c1	0.051308397
82	0x3d4120d5	0.04715045
83	0x3d537e36	0.051634036
84	0x3caffc76	0.021482687
85	0x3b729455	0.0037014682
86	0xbba36c48	-0.0049872734
87	0xbce1d11b	-0.02756553
88	0xbcaf1ec9	-0.021376984
89	0x3d556449	0.052097593
90	0x3cc595e7	0.02411933
91	0x3d57f175	0.052720506
92	0x3b8c3681	0.0042789583
93	0x3d412440	0.04715371
94	0x3d244f9d	0.040114988
95	0xbc3207ad	-0.010866088
96	0xbd134017	-0.035949793
97	0xbcb2f753	-0.021846449
98	0xbce079d6	-0.027401846
99	0xbc2bde26	-0.010489976
100	0xbbc03050	-0.0058651343
101	0x3ce5a8ad	0.028034532
102	0x3d7b7adc	0.061396465
103	0xbc96c727	-0.01840551
104	0x3d056101	0.032563213
105	0x3d1f0593	0.038823675
106	0x3c254112	0.010086315
107	0x3d893e9a	0.067013934
108	0xbc945d56	-0.018110912
109	0x3d51d8d9	0.051232193
110	0x3ca4b7ee	0.020107236
111	0xbc1cba9a	-0.009565974
112	0x3c0c25d0	0.008553937
113	0x3d78c4a6	0.060734414
114	0x3c8f33d7	0.017480774
115	0x3c8905fe	0.01672649
116	0x3d137137	0.035996642
117	0x3d076e75	0.033064324
118	0xbc986f61	-0.018607797
119	0x3d8da8e0	0.06916976
120	0x3d258109	0.04040626
121	0x3d7f9352	0.062396355
122	0x3d30eb50	0.04319316
123	0x3c9640d1	0.018341454
124	0x3c011ffa	0.007881159
125	0x3c786363	0.015160414
126	0x3c0c5087	0.008564121
127	0xbcd1ceaf	-0.02561125
128	0x3c860697	0.016360564
129	0xbc38d231	-0.011280582
130	0x3c940bbf	0.018072007
131	0x3caaf605	0.020869264
132	0x3c088626	0.008332765
133	0xbc18f5cc	-0.009335946
134	0x3d5d8e40	0.05409074
135	0xbca5064c	-0.020144604
136	0xbd00ab99	-0.03141365
137	0x3d42b8bf	0.04753947
138	0x3d1e4259	0.038637493
139	0x3ccd0094	0.02502469
140	0x3bd640ae	0.006538472
141	0x3bdff92e	0.0068351245
142	0x3d3cff76	0.046142064
143	0x3a69f114	0.0008924168
144	0xbc2913cd	-0.010319662
145	0x3d41995f	0.047265407
146	0x3c5c7213	0.013454932
147	0x3cb99a7d	0.022656674
148	0x3c9c1d7c	0.019057028
149	0x3d0d1a53	0.034448933
150	0x3d9eec30	0.07759893
151	0x3d18a2d8	0.037264675
152	0xbcb3c65d	-0.021945173
153	0xbb689b9b	-0.0035493139
154	0x3d8384f7	0.064218454
155	0xbb6c8121	-0.003608771
156	0x3d6994bd	0.057026614
157	0x3d80a416	0.06281297
158	0x3c10f0a1	0.008846433
159	0x3a7bec25	0.00096100784
160	0x3d6841fc	0.056703553
161	0x3cec8a19	0.028874444
162	0x3d0b8083	0.034058105
163	0x3c8f9636	0.01752768
164	0x3c11e3f4	0.008904446
165	0x3ca687cf	0.02032843
166	0x3cc82d72	0.024435733
167	0xbcd0c56f	-0.025484769
168	0x3d5b73ab	0.053577106
169	0xbcfee330	-0.03111419
170	0xbd4cb411	-0.049976412
171	0xbc96f6a1	-0.018428149
172	0xbc6f215f	-0.014595359
173	0x3a0f476b	0.0005465659
174	0xbd102b7e	-0.035197727
175	0x3ca262c6	0.01982249
176	0xbcf22cd1	-0.029562386
177	0xbd344fb2	-0.044021316
178	0xbcd18243	-0.025574809
179	0x3ccf8c04	0.02533532
180	0xbcca7bb2	-0.024717186
181	0x3cfea8a8	0.031086281
182	0xbcaab6f4	-0.020839192
183	0x3ca7ea48	0.020497456
184	0x3d34e024	0.04415907
185	0xbd28cd74	-0.04121156
186	0x3c9cdd7a	0.019148577
187	0xbb2a6054	-0.0025997357
188	0xbd00ea7a	-0.031473614
189	0xbabd1e2e	-0.001442855
190	0x3d2b10ea	0.041764177
191	0x3bd907bb	0.006623236
192	0xbc0d98c2	-0.008642377
193	0xbcf1bc46	-0.029508721
194	0x3c95e3de	0.018297132
195	0xbd1b6f28	-0.037947804
196	0xbc05c97e	-0.008165715
197	0xbcb4af3f	-0.02205622
198	0x3cb7c5fc	0.022433273
199	0x3d64b82b	0.0558397
200	0xbd4c5b38	-0.04989168
201	0xbb018dda	-0.0019768388
202	0xbc2d61a5	-0.010582362
203	0x3d26d122	0.04072679
204	0xbd3f87ae	-0.046760254
205	0xbb84c1f2	-0.0040514404
206	0xbd24068a	-0.0400453
207	0x3c592cab	0.013255279
208	0xbd04517b	-0.03230427
209	0xbd1cae29	-0.03825203
210	0xbd0f4d44	-0.034985796
211	0xbd2e1ee8	-0.042509943
212	0x3ab5f82e	0.0013883167
213	0xbb355f39	-0.0027675165
214	0xbd0f6af3	-0.035014104
215	0xbd0f051b	-0.03491698
216	0xbd0c1ca5	-0.034207005
217	0x3cf3885e	0.02972811
218	0x3d084813	0.03327186
219	0xbca691dc	-0.020333223
220	0xbd41385a	-0.04717288
221	0xbd2bb04d	-0.04191618
222	0x3d285677	0.041098084
223	0xbd03b533	-0.032155227
224	0xbca7ac17	-0.020467801
225	0x3d1f7fc7	0.038940217
226	0x3d03cad2	0.032175846
227	0xbd05fe48	-0.032713205
228	0xbd6c07a7	-0.057624485
229	0xbd2fc6ff	-0.042914387
230	0xbc89a43d	-0.016801948
231	0xbd3f5d29	-0.046719704
232	0x3ca20a6e	0.019780364
233	0xbcf5ecc0	-0.030020118
234	0x3d1ce49b	0.038303953
235	0x3d12a590	0.035802424
236	0xbd254b4d	-0.040355016
237	0xbc2840ab	-0.010269324
238	0x3c8cd585	0.017191658
239	0x3cbdb8f0	0.023159474
240	0xbcda0c7b	-0.02661728
241	0xbd223d3e	-0.039609186
242	0x3cfb81a6	0.03070147
243	0x3b897dcb	0.004195904
244	0x3bfa644e	0.007641352
245	0x3d6840d8	0.056702465
246	0xbca23c2d	-0.019804085
247	0xbd150b44	-0.036387697
248	0xbd66463f	-0.056219336
249	0xbd298ffc	-0.04139708
250	0x38aa4cfd	8.120572e-05
251	0x3d1ee77a	0.038794972
252	0xbcc3e9ee	-0.023915257
253	0xbb91ec72	-0.0044532353
254	0xbbf2f458	-0.007414382
255	0xbd622b58	-0.055217117

6.bias f4 [16]
0	0x3d882ae5	0.066488065
1	0x3d61fc18	0.055172056
2	0xbb4b9764	-0.0031065578
3	0x3cadef55	0.021232286
4	0x3cad2400	0.02113533
5	0x3d5aa01f	0.05337536
6	0x3b847bad	0.0040430636
7	0xbbf3d6dc	-0.0074413847
8	0x3d55a111	0.052155558
9	0xbca39b48	-0.019971505
10	0x3d06309d	0.032761205
11	0x3cb79143	0.022408133
12	0xbd3cfaaa	-0.04613749
13	0x3d004632	0.031316943
14	0x3d1d0047	0.038330343
15	0x3d6ccfb7	0.05781528

7.weight f4 [16]
0	0x3f812117	1.0088223
1	0x3f8649bf	1.0491256
2	0x3f836a79	1.0266868
3	0x3f82d346	1.0220726
4	0x3f6fbea1	0.9365025
5	0x3f8917a9	1.0710346
6	0x3f80ad10	1.0052814
7	0x3f803e0c	1.0018935
8	0x3f806a4c	1.0032439
9	0x3f79b364	0.97539353
10	0x3f73cf8e	0.9523858
11	0x3f81dbf5	1.014525
12	0x3f797914	0.97450376
13	0x3f7ec756	0.9952291
14	0x3f79edf3	0.97628707
15	0x3f7d7ca6	0.99018323

7.bias f4 [16]
0	0xbbe037ce	-0.00684259
1	0x3ce0ed5f	0.027456937
2	0xbaa61a7c	-0.0012672688
3	0x3cd2689e	0.025684651
4	0xbd8266b7	-0.063672476
5	0x3ca5473d	0.02017557
6	0x3b83a16e	0.0040170467
7	0xbcd281bd	-0.02569663
8	0xbb7ff9e1	-0.0039058852
9	0xbca34a2b	-0.019932827
10	0xbd20af70	-0.03922981
11	0x3ca81064	0.020515628
12	0xbcb931ff	-0.022606848
13	0xbcb6fd13	-0.022337472
14	0xbcbcd8d7	-0.023052616
15	0xbcb6fe95	-0.022338191

7.running_mean f4 [16]
0	0x3f7a2924	0.97719026
1	0xbf57d323	-0.84306544
2	0xbee0d576	-0.43912858
3	0xbf8735dd	-1.0563313
4	0xbfda6812	-1.706301
5	0xbeb77c58	-0.35837054
6	0xbf39f75e	-0.7264308
7	0x3f81178c	1.0085311
8	0x3e61a622	0.22036031
9	0xbfae684a	-1.3625576
10	0xbf664771	-0.8995276
11	0xbf80b54d	-1.0055329
12	0x3e6c9f82	0.23107722
13	0x3f971402	1.1802981
14	0xbf71cf00	-0.9445648
15	0xbf34ad91	-0.7057734

7.running_var f4 [16]
0	0x40327293	2.788243
1	0x3edeae75	0.43492475
2	0x3ed7a5d9	0.4211872
3	0x3f860228	1.0469408
4	0x407eb667	3.979883
5	0x3f6af5a2	0.91781056
6	0x3f664d17	0.8996138
7	0x400a31e9	2.1592963
8	0x40144408	2.3166523
9	0x40a10fcf	5.0331798
10	0x3fb4ef59	1.4135543
11	0x3f078fcb	0.52953786
12	0x401497f3	2.3217742
13	0x3f6db596	0.92855203
14	0x3fb5af38	1.4194098
15	0x40228f51	2.5399973

9.weight f4 [8, 16, 5, 5]
0	0xbcdde3af	-0.027086107
1	0x3a28deb9	0.00064418797
2	0x3d4df52b	0.05028264
3	0xbc55e7ad	-0.013055724
4	0xbc3ac5ec	-0.011399727
5	0x3d17f782	0.037101276
6	0x3d41dd97	0.047330465
7	0x3d4f5be2	0.050624736
8	0xbc22c5dc	-0.009934869
9	0x3d168cea	0.03675548
10	0xbc86a189	-0.016434448
11	0x3cee0bea	0.029058415
12	0x3d192692	0.0373903
13	0x3ce056b4	0.027385093
14	0x3c4a2323	0.012337479
15	0xbc9b2fa3	-0.018943613
16	0xbc5649e2	-0.0130791385
17	0xbd5f3d50	-0.05450183
18	0xbc350ad2	-0.011049943
19	0xbd512aba	-0.051066138
20	0x3c98dd91	0.018660339
21	0x3d167db8	0.03674099
22	0x3c998da5	0.0187443
23	0xbcc79080	-0.024360895
24	0xbcf8cd12	-0.030371223
25	0x3d3173aa	0.043323196
26	0x3c230472	0.00994979
27	0xbbc44472	-0.0059896046
28	0x3c730cec	0.014834624
29	0x3cbca4bc	0.02302777
30	0xbd414565	-0.04718532
31	0x3cc3bd68	0.023894027
32	0x3d5cdc2f	0.05392092
33	0xbcc646f9	-0.024203764
34	0x3c4ee798	0.012628458
35	0xbcfc9c0e	-0.030836131
36	0xbd0cc26d	-0.034365106
37	0x3d75f9c3	0.060052644
38	0x3d930b54	0.07179895
39	0x3d788eea	0.06068317
40	0xbcd10694	-0.025515832
41	0xbd69c140	-0.057069063
42	0x3c469a59	0.01212176
43	0xbd36049a	-0.044437982
44	0x3d45a7e5	0.04825582
45	0x3d3f0449	0.046634946
46	0xbc5987e3	-0.013277027
47	0xbd9df79b	-0.077132426
48	0xbd890517	-0.06690424
49	0xbcc30d45	-0.023810038
50	0xbd5f1e41	-0.05447221
51	0xbd787736	-0.060660563
52	0xbd2c1fd3	-0.042022537
53	0x3c24e1ae	0.010063572
54	0x3bd1f809	0.006407742
55	0xbce84ab8	-0.028355941
56	0xbca349e6	-0.019932698
57	0xbd72ddde	-0.05929362
58	0xbd3c9dd1	-0.046048943
59	0xbd056e97	-0.03257617
60	0x3cfb75b1	0.030695768
61	0x3d0be7de	0.034156673
62	0xbc88809b	-0.016662886
63	0xbc80cfb6	-0.015724044
64	0xbd86fc04	-0.06591037
65	0x3d444aa4	0.047922745
66	0xbcf12f2b	-0.029441437
67	0xbb2d73b9	-0.002646668
68	0x3c8c2fc2	0.017112616
69	0xbd3c0388	-0.045901805
70	0x3d177b4a	0.036982812
71	0x3c9e8307	0.019349588
72	0x3ca88cba	0.020574916
73	0x3c85460a	0.016268749
74	0xbc368e82	-0.011142375
75	0xbd0c7777	-0.034293618
76	0x3b7b6be1	0.0038363861
77	0xbc6f8957	-0.014620147
78	0xbd180cee	-0.037121706
79	0x3c02240f	0.007943167
80	0xbbb723dc	-0.0055889916
81	0xbceac6cc	-0.028659247
82	0xbd3bab71	-0.045817796
83	0x3b874550	0.0041281357
84	0x3a8c36c3	0.0010697473
85	0xbd5991ca	-0.05311755
86	0xbd3839f2	-0.044977136
87	0x3c2bd5e9	0.010488012
88	0x3d3ece4e	0.046583466
89	0x3d6fd09d	0.05854856
90	0xbcebce92	-0.028785024
91	0x3ca4c158	0.020111725
92	0xbd021385	-0.031756897
93	0x3d614a82	0.055002697
94	0x3c419f0c	0.011817705
95	0x3d5d3d62	0.054013617
96	0x3c40227e	0.011726974
97	0x3d0d2f17	0.034468736
98	0xbd14ab58	-0.03629622
99	0xbd122aa6	-0.035685204
100	0xbccafb24	-0.024777956
101	0x3c6c946d	0.014439684
102	0x3cc99e8b	0.024611732
103	0x3d0d0b9c	0.0344349
104	0x3d45ea6b	0.04831926
105	0x3cec240b	0.02882578
106	0x3b7e9751	0.0038847516
107	0xbc2451ec	-0.010029297
108	0x3ab59c39	0.0013855762
109	0x3d3bb361	0.045825366
110	0xbd1b5b24	-0.037928715
111	0x3d72d994	0.05928953
112	0xbadaf7b8	-0.0016705906
113	0xbcebe9eb	-0.028798064
114	0x3ab7124f	0.0013967248
115	0x3cc19085	0.023628483
116	0xbb6358e6	-0.0034690439
117	0x3d0fd1b0	0.035112083
118	0xbc6c3992	-0.014418023
119	0x3c647ea8	0.013946213
120	0x3c4e7a32	0.012602376
121	0xbd0a9829	-0.033836517
122	0xbcc2e2a0	-0.023789704
123	0x3d66b9de	0.0563296
124	0x3cd49474	0.025949694
125	0xbca2eae5	-0.019887397
126	0x3d629343	0.05531622
127	0x3d6053b1	0.054767314
128	0x3cc1c027	0.023651196
129	0x3d0e2710	0.03470522
130	0x3cd2a32f	0.025712578
131	0x3cd22f2d	0.02565726
132	0xbc0c25e8	-0.008553959
133	0xbca90288	-0.02063109
134	0xbce2e324	-0.0276962
135	0xbd6d815a	-0.057984687
136	0x3c9f543c	0.019449346
137	0xbcfa2716	-0.030536216
138	0x3c8c1b5d	0.017102892
139	0x3d177346	0.036975168
140	0xbd09d4b1	-0.033650104
141	0x3be09d22	0.006854669
142	0xbd92fbe7	-0.07176953
143	0x3d2c1112	0.042008467
144	0x3d873611	0.06602109
145	0x3d29e4fc	0.041478142
146	0x3d49e40c	0.049289748
147	0xbd3100ec	-0.04321377
148	0xbc33adbc	-0.0109667145
149	0x3d57317a	0.05253742
150	0xbd24e62c	-0.04025857
151	0x3c43793b	0.011930759
152	0xbd3af151	-0.045640294
153	0xbcb4f211	-0.022088083
154	0x3d43bdbd	0.04778837
155	0x3c87e921	0.016590657
156	0xbd06a231	-0.03286952
157	0x3d66f585	0.05638649
158	0x3d6adddf	0.0573405
159	0x3ca8943a	0.020578492
160	0x3d4fcfe0	0.050735354
161	0x3d2d6793	0.042335104
162	0x3b5bf8d7	0.0033565068
163	0xbd2cf9d8	-0.042230457
164	0xbc05c9ee	-0.00816582
165	0x3cae491b	0.021275094
166	0xbd289e1e	-0.041166417
167	0xbca31c79	-0.019911038
168	0x3c01ff2e	0.007934375
169	0x3cc9dffc	0.024642937
170	0xbca3058e	-0.01990011
171	0xbd64a07d	-0.055817116
172	0xbd880992	-0.066424504
173	0x3bb3e3d8	0.0054898076
174	0x3b78f76a	0.0037989267
175	0xbd48fa93	-0.04906709
176	0xbc9d6bda	-0.019216467
177	0xbc8eb46a	-0.017420013
178	0xbcf38832	-0.029728029
179	0xbd1cacbb	-0.038250666
180	0xbd439a7c	-0.04775475
181	0x3d1e29c3	0.038614046
182	0x3cf782fd	0.030213827
183	0xbc3c4342	-0.011490645
184	0x3cb4fa7a	0.022092093
185	0x3d39a235	0.04532071
186	0xbcd2b5be	-0.025721427
187	0x3cad268d	0.021136547
188	0x3cea8467	0.028627587
189	0x3d4de180	0.05026388
190	0x3ca56d84	0.020193823
191	0x3cc74c41	0.024328353
192	0xbd66a4ae	-0.056309395
193	0xbd28f4f0	-0.041249216
194	0x3cf96dc7	0.030447854
195	0x3c804de1	0.015662136
196	0xbd2df23e	-0.04246735
197	0xbc2fbe93	-0.010726589
198	0xba19d4c9	-0.0005868194
199	0x3a8a100c	0.0010533347
200	0xbd61981b	-0.0550767
201	0xbd366e5c	-0.04453884
202	0xbd3e8678	-0.04651496
203	0x3cac1de6	0.02101035
204	0x3c63f653	0.013913709
205	0xbd4ae843	-0.04953791
206	0x3bc0285c	0.005864186
207	0x3d2b3a90	0.041803896
208	0x3bdb863c	0.0066993516
209	0x3c301703	0.010747674
210	0x3cb84d5e	0.022497829
211	0xbd230a20	-0.039804578
212	0x3d0c86a0	0.034308076
213	0x3ca9bc44	0.020719655
214	0xbd17458a	-0.036931552
215	0xbc3fe834	-0.011713076
216	0x3b993764	0.0046757925
217	0xbd09c4d4	-0.033634976
218	0x3c95c99f	0.018284617
219	0xbd32ec48	-0.043682367
220	0x3c9931ec	0.018700562
221	0xbd02e59b	-0.03195725
222	0x3c2971d2	0.010342078
223	0xbb0c5563	-0.00214132
224	0xbd6bbdad	-0.057553936
225	0x3d430b71	0.047618333
226	0x3bb1e838	0.005429294
227	0xba00a5e8	-0.00049075345
228	0x3c45c29d	0.012070325
229	0xbca4baa5	-0.02010853
230	0x3d67842b	0.05652253
231	0xbd121881	-0.0356679
232	0xb8b83c80	-8.785073e-05
233	0x3d5f0e76	0.05445715
234	0xbc822d62	-0.01589078
235	0x3cecca2a	0.028904993
236	0x3c26afe7	0.010173774
237	0x3c811d49	0.015761035
238	0x3d756321	0.05990899
239	0xbd2fdf87	-0.04293778
240	0xbbc4e2f2	-0.0060084993
241	0x3ccfbf1d	0.025359685
242	0x3d23772a	0.039908566
243	0xbcff63eb	-0.031175574
244	0x3d4a2599	0.049352262
245	0x3d594f96	0.053054415
246	0x3b963e48	0.004585061
247	0x3d2fb293	0.04289491
248	0xbc26a354	-0.010170776
249	0xbcd05f20	-0.025435984
250	0x3b5d02ef	0.0033723672
251	0x3bec2d73	0.0072075664
252	0x3c93aef9	0.01802777
253	0x3bb4be0c	0.0055158194
254	0x3ce91996	0.028454583
255	0x3cb7b5ed	0.022425616

9.bias f4 [8]
0	0x3d094b92	0.033519335
1	0xbd6c741b	-0.057727914
2	0x3c13e98f	0.009027853
3	0x3c2b4f39	0.0104559
4	0xbc9cf1cf	-0.019158272
5	0xbb6e80c6	-0.0036392673
6	0x3b2c8ad0	0.0026327856
7	0x3c320e41	0.010867656

10.weight f4 [8]
0	0x3f8533ef	1.0406474
1	0x3f81f57c	1.0153041
2	0x3f8225c3	1.0167774
3	0x3f7b2af5	0.9811242
4	0x3f8095be	1.0045698
5	0x3f783092	0.9694911
6	0x3f7d9c99	0.99067074
7	0x3f7f6865	0.9976867

10.bias f4 [8]
0	0x3c9bc384	0.019014128
1	0x3bb19d06	0.00542033
2	0x3d84336a	0.06455119
3	0xbba6ae7d	-0.0050867186
4	0x3cb12f68	0.02162905
5	0xbcbc9c5f	-0.023023782
6	0xbc6b4ec8	-0.014362045
7	0x3cf81112	0.030281577

10.running_mean f4 [8]
0	0x3d40ea1c	0.047098264
1	0xbfb7271e	-1.4308813
2	0xbfa5a32a	-1.2940419
3	0x3ecacbb2	0.39608532
4	0xbe15f509	-0.14644255
5	0xc005dfc2	-2.091782
6	0xbfb77636	-1.433295
7	0xbf25f0c7	-0.6482052

10.running_var f4 [8]
0	0x3f5f8f44	0.8732798
1	0x4068ebac	3.6393843
2	0x400e712d	2.2256577
3	0x40051eb0	2.079998
4	0x3feb7b67	1.8397034
5	0x4095e152	4.683755
6	0x40f3024b	7.59403
7	0x3fef2470	1.8682995

13.weight f4 [4, 8, 3, 3]
0	0xbca867e4	-0.020557351
1	0xbccb0905	-0.024784574
2	0xbdc44ae3	-0.09584596
3	0x3d80f380	0.06296444
4	0xbd3cd5e5	-0.046102423
5	0x3cf3a96b	0.02974387
6	0xbcfa0ca2	-0.030523602
7	0xbcb6f45c	-0.022333317
8	0x3c9d5431	0.019205185
9	0xbe17e512	-0.14833477
10	0xbe1a77ac	-0.15084714
11	0xbe3f122c	-0.18659276
12	0x3cb42b1f	0.021993218
13	0xbe12cf10	-0.143368
14	0x3cdeb474	0.027185656
15	0x3c82e9d0	0.015980631
16	0xbdccb3a4	-0.09995201
17	0xbb425eec	-0.0029658629
18	0xbdfd38f0	-0.123643756
19	0xbda0609c	-0.07830927
20	0x3b1c9841	0.0023894461
21	0xbde661e9	-0.11249144
22	0xbdcc113b	-0.09964224
23	0xbd932d6e	-0.071863994
24	0xbd6272df	-0.05528533
25	0xbc0a1c75	-0.008429636
26	0xbd78500e	-0.06062322
27	0x3e1fa9bf	0.15592097
28	0xbced2864	-0.028949924
29	0x3c66a0c1	0.014076413
30	0x3d8ff350	0.0702883
31	0x3d45d022	0.048294194
32	0x3db24bee	0.08705889
33	0x3ba6e7bf	0.0050935443
34	0x3cadf549	0.021235125
35	0x3e01ccaa	0.1267573
36	0x3db39be4	0.08769968
37	0xbce29836	-0.02766047
38	0xbd141afa	-0.03615854
39	0x3d5e3ab6	0.05425521
40	0xbd7cbf0e	-0.06170564
41	0xbd3a83f2	-0.04553599
42	0xbd725b57	-0.05916914
43	0x3d79e48c	0.061008975
44	0x3d9fba4d	0.07799206
45	0xbd7ca9fe	-0.061685555
46	0x3cc9f643	0.02465356
47	0x3d37ae77	0.044844117
48	0xbdd554f7	-0.104165964
49	0x3d7cf394	0.06175573
50	0x3ccc12f8	0.024911389
51	0xbcfb6280	-0.030686617
52	0xbdc83364	-0.09775427
53	0x3b608ae5	0.0034262475
54	0xbc99992a	-0.018749792
55	0x3cbd4a63	0.02310676
56	0x3ca00615	0.01953415
57	0xbe0fc971	-0.14041688
58	0x3ccfc3a1	0.025361838
59	0xbe1f9c97	-0.15587078
60	0x3d5f3d41	0.054501776
61	0xbe2dff0c	-0.16991824
62	0xbe0d62a4	-0.1380716
63	0x3d827225	0.063694276
64	0xbdc0cb13	-0.09413733
65	0xbde64e86	-0.11245446
66	0xbd808eed	-0.06277261
67	0xbd4637d1	-0.048393074
68	0xbd475c68	-0.04867211
69	0xbac751c3	-0.0015206862
70	0xbdc83476	-0.09775631
71	0x3cb48185	0.022034416
72	0x3dde50af	0.10855233
73	0xbc72a8d5	-0.0148107605
74	0xbd5a3789	-0.05327562
75	0xbdc3e5d9	-0.09565324
76	0xbc103262	-0.008801075
77	0x3d231f2c	0.03982465
78	0x3e0bff61	0.13671638
79	0x3d09431d	0.03351127
80	0x3d87f738	0.0663895
81	0xbdc30a58	-0.09523457
82	0x3db00d53	0.085962914
83	0xbd76e97f	-0.060281273
84	0x3dcd1875	0.100144304
85	0x3d545de2	0.051847346
86	0x3bf3e212	0.007442721
87	0xba8cdce6	-0.0010746985
88	0xbddcecea	-0.10787375
89	0xbd11a4fa	-0.035557725
90	0xbcc0816c	-0.023499213
91	0x3da2d8d2	0.079515114
92	0xbd0c68f0	-0.034279764
93	0xbca275cc	-0.01983156
94	0xbdfb4fd5	-0.12271086
95	0x3d603056	0.054733597
96	0x3da8f337	0.082495145
97	0x3c15b29d	0.009136823
98	0xbdc99dbe	-0.0984454
99	0xbd39376e	-0.045218877
100	0x3a6e464a	0.00090894534
101	0xbd53f1f4	-0.051744416
102	0x3e0e38aa	0.13888803
103	0x3d380cc2	0.04493404
104	0xbda712b7	-0.081578664
105	0xbda203d7	-0.07910889
106	0x3d923bcf	0.07140314
107	0xbad49688	-0.0016219178
108	0xbbce143b	-0.0062890328
109	0xbda02d02	-0.078210846
110	0x3c9fdfd5	0.019515911
111	0x3d9c44c1	0.07630301
112	0xbd17f56a	-0.03709928
113	0x3dc986ad	0.098401405
114	0x3d3450b6	0.044022284
115	0x3d902c7c	0.07039735
116	0xbd2093a8	-0.039203316
117	0x3dd8e051	0.1058966
118	0xbdd153a9	-0.10221035
119	0xbdc0ee4a	-0.0942045
120	0xbcee230e	-0.02906945
121	0xbda4d642	-0.08048679
122	0x3dacc741	0.08436442
123	0x3d7600e3	0.06005944
124	0xbcdff60b	-0.027339002
125	0xbdd9ea2b	-0.10640367
126	0xbda71483	-0.08158209
127	0x3d5660c4	0.052338377
128	0xbdd15957	-0.10222118
129	0x3da7946f	0.08182608
130	0x3ded5484	0.11588386
131	0xbd89d2af	-0.06729638
132	0x3c87daeb	0.01658388
133	0x3cf05536	0.029337507
134	0x3d5691a3	0.052384984
135	0x3dece581	0.11567212
136	0x3c183073	0.009288895
137	0xbd91ff2f	-0.071287505
138	0xbd7c61d0	-0.06161672
139	0x3d14d258	0.036333412
140	0x3dde5d6c	0.108576626
141	0x3daf46b4	0.085584074
142	0x3d81edf6	0.063442156
143	0xbe07d9c6	-0.13266668
144	0xbd52955f	-0.051411983
145	0xbde73fa7	-0.112914376
146	0x3da1c23c	0.078983754
147	0x3bfce2ec	0.007717481
148	0xbd83c11d	-0.06433318
149	0xbd1b2e99	-0.037886236
150	0x3c92667c	0.017871134
151	0xbde56ac4	-0.112020046
152	0x3da81a35	0.082081236
153	0xbdc6824e	-0.096928224
154	0xbd439fff	-0.047760006
155	0xbdcb4f90	-0.09927285
156	0xbd2ae79e	-0.041724794
157	0xba614573	-0.00085934176
158	0x3e02b6a8	0.1276499
159	0x3df8d219	0.12149448
160	0x3ca466d3	0.020068562
161	0x3dd81835	0.10551492
162	0xbd912989	-0.07088
163	0x3c09a310	0.008400694
164	0x3dcd1faa	0.10015805
165	0x3d9b3477	0.07578366
166	0x3de46b1e	0.111532435
167	0xbad0766e	-0.0015904435
168	0xbde0ddd2	-0.10979809
169	0xbdfe7174	-0.12423983
170	0x3e1e4e04	0.15459448
171	0xbce9d844	-0.028545506
172	0xbc637473	-0.013882744
173	0x3e04e3d9	0.12977542
174	0xbc73af03	-0.014873269
175	0x3db0b9e0	0.08629203
176	0xbd65c397	-0.056094732
177	0xbd137822	-0.03600324
178	0xbd262d5e	-0.04057061
179	0x3d2d378a	0.042289294
180	0xbdede0a8	-0.116151154
181	0x3cae4df4	0.021277405
182	0xbe0e5601	-0.13899995
183	0x3dca665a	0.09882803
184	0xbd46aa70	-0.048502386
185	0x3ccb02b8	0.02478157
186	0x3defa9c4	0.11702302
187	0xbd320d11	-0.043469492
188	0xbc81b48c	-0.015833162
189	0x3b4e600f	0.003149036
190	0xbd2b6752	-0.04184658
191	0x3db3fbb8	0.08788246
192	0xbacb813c	-0.0015526186
193	0xbdff7fd3	-0.124755524
194	0x3db63695	0.088971294
195	0x3dc9cc6f	0.09853446
196	0x3d8f23cc	0.069892496
197	0x3daaa115	0.08331505
198	0x3da0f8ba	0.07859941
199	0xbc66d2a2	-0.014088305
200	0xbc7c1175	-0.015385021
201	0x3b959615	0.0045650103
202	0x3cdb67ae	0.026782837
203	0xbdcb8586	-0.09937577
204	0x3d57e532	0.052708812
205	0x3ca55b5f	0.02018517
206	0x3d4b10b1	0.049576465
207	0xbc7bbf8d	-0.0153654935
208	0x3cf933f7	0.030420287
209	0x3d7206ae	0.0590884
210	0xbd708193	-0.05871732
211	0x3de2ce49	0.11074502
212	0xbd9df3b1	-0.07712496
213	0xbbf568c0	-0.007489294
214	0x3de8e4d5	0.11371771
215	0x3ced4d7e	0.028967615
216	0xbdef6d55	-0.11690775
217	0xbd89438a	-0.06702335
218	0x3d77f629	0.06053749
219	0x3e27f142	0.16400626
220	0xbdf3a3f1	-0.11896504
221	0x3de46bdd	0.11153386
222	0xbc049237	-0.008091501
223	0x3db1d35e	0.08682893
224	0xbdc4021f	-0.09570717
225	0x3d8d4e06	0.068996474
226	0x3b522bd3	0.0032069578
227	0x3df59c03	0.119926475
228	0xbc1c3a1e	-0.009535341
229	0x3db641b9	0.08899254
230	0x3b136c4c	0.002249497
231	0x3da66089	0.08123881
232	0x3cb1bdcd	0.02169695
233	0x3bd36cae	0.0064521646
234	0xbc84268f	-0.016131667
235	0x3c1a7976	0.009428373
236	0xbb84675c	-0.0040406417
237	0xbd545cd7	-0.05184635
238	0x3c6da171	0.014503823
239	0x3dbbc1d2	0.09167828
240	0x3b4b27d9	0.0030999093
241	0xbdcd359b	-0.1001999
242	0x3d2f2cb6	0.04276725
243	0x3cb26cc8	0.021780387
244	0x3ddcb89d	0.107774
245	0x3da7ad64	0.081873685
246	0xbdee5f70	-0.11639297
247	0x3ca41908	0.020031467
248	0x3d0b14e9	0.03395549
249	0xbd87c23c	-0.06628844
250	0x3d516776	0.05112406
251	0xbcc76952	-0.024342213
252	0x3dc33faa	0.09533627
253	0xbdd48f96	-0.10378949
254	0xbcde673e	-0.02714884
255	0x3df8e8a3	0.12153747

13.bias f4 [4]
0	0x3cc167a7	0.023608996
1	0xbe0985c0	-0.13429928
2	0xbd7314fc	-0.059346184
3	0x3d067604	0.032827392

14.weight f4 [4]
0	0x3f840c15	1.0316187
1	0x3f8f1b5b	1.1180223
2	0x3f8cd830	1.1003475
3	0x3f90d267	1.131421

14.bias f4 [4]
0	0x3ccfb980	0.025357008
1	0x3ddb14e5	0.10697345
2	0x3e2d0774	0.16897374
3	0x3e1a235c	0.15052551

14.running_mean f4 [4]
0	0xbf261185	-0.6487048
1	0xbcb20ab3	-0.021733617
2	0x3e0e3720	0.13888216
3	0x3e4b8d6b	0.19878165

14.running_var f4 [4]
0	0x3f3bda0d	0.73379594
1	0x3d9dcfae	0.077056274
2	0x3daee200	0.085392
3	0x3d403282	0.046923168

17.weight f4 [1, 4, 3, 3]
0	0x3da75622	0.081707254
1	0x3dbea46a	0.09308703
2	0x3e2d96fa	0.16952124
3	0x3e0b530f	0.13605903
4	0x3dc59f38	0.09649509
5	0xbd8dfb59	-0.069327064
6	0xbe00bb46	-0.12571439
7	0x3e243086	0.16034135
8	0x3d3d016d	0.046143938
9	0xbe19e896	-0.1503013
10	0xbe68af3b	-0.22723095
11	0x3d3ebf1b	0.04656897
12	0xbe355d42	-0.17711356
13	0xbe71cc21	-0.23613025
14	0xbd88cf4d	-0.066801645
15	0xbe28acb4	-0.16472131
16	0x3b05c9f5	0.0020414565
17	0xbd528cf4	-0.051403955
18	0xbc176bdb	-0.009242023
19	0xbe78973c	-0.24276441
20	0xbafbecf9	-0.0019220404
21	0xbe4538ed	-0.19259997
22	0x3d38b78c	0.04509692
23	0xbd32741e	-0.04356777
24	0xbe6b1a36	-0.22959217
25	0xbe28e5d9	-0.1649393
26	0xbd260b4c	-0.040538117
27	0xbe813ef2	-0.25243336
28	0xbe5798b5	-0.21054347
29	0xbe51cbed	-0.20487948
30	0xbdcf619a	-0.10126038
31	0xb8023b7d	-3.1049818e-05
32	0xbbe9fce8	-0.0071407445
33	0x3d6cc210	0.05780226
34	0xbe0f5488	-0.1399709
35	0xbc94a6f8	-0.018146023
