Deployment/model.pth (torch, 57222 bytes, 31 tensors)

0.weight f4 [8, 3, 3, 3]
00000000: b3be c4bd 7feb 0f3e 0ec7 283e 8014 d63d
00000010: 2d0e c2bc 3c37 213d b348 c7bd 3b70 283e
00000020: 6228 a13d a181 b9bd 4abc 763d ca58 70bb
00000030: 3865 5cbd e643 c8bd bfd0 68bd 928a c9bd
00000040: f6fb 2ebe 10dd 3cbe 7ce0 a1bd 2407 143e
00000050: 01db 80bd 3b66 243c b9dc 4f3e 2b9e 7f3e
00000060: 51dc 29bd e732 d53d e71f e4bd 5998 063e
00000070: ee15 c4bb 0761 523e d5db 23bd 4059 2fbd
00000080: 87e2 fa3d 4564 633d 0086 79bd df1c 88bd
00000090: b4f0 dbbd 7877 933a d52f a4bd dc6f 723d
000000a0: 28d6 29bd 80be a13d ce80 e73c 9a67 a4bd
000000b0: ed96 0cbd ce6b 73bd 7d6b aabd 63de e4bd
000000c0: 8011 b63c baff a1bd 9d98 46bd 0daa 45be
000000d0: 6159 9fbe 153e c6be 0a61 65bd af0a ee3d
000000e0: 81de fb3d 01fa e6bd 5eb5 673b a6f7 003e
000000f0: 099e dd3d 5e4e d83d 29e3 eb3c 1c57 73bd
00000100: 22c1 2f3e 187f f63c e9a5 23be 0364 13be
00000110: 9c46 a5bd b6b2 273e 5d57 e93d e2f1 c9bd
00000120: e1f8 29be bf35 c3bb f7e1 583d efc0 6abc
00000130: ec5d 6dbd 142c a33c 7135 783d 2a87 a9bd
00000140: 1ad7 61be 4b1a 0f3d 6595 6fbe cc64 d1b8
00000150: ef33 4a3d 644e ff3d 51d6 cabd 7702 1cbd
00000160: 1ab6 e73d 77da da3d ae41 3ebd 6e32 1ebe
00000170: b543 b2bd 1051 6ebd 59d7 473e 718e 06be
00000180: 430c 613d ffea 94bd 25b7 613d 145a 213d
00000190: c4ff 46be 25a7 d43c f2e1 aa3d 3bfe 483e
000001a0: 1d46 2c3c 73f5 2abe 260e 963d 4713 ad3d
000001b0: dcd6 243e 02f4 26be 6334 273e d1cf a7bd
000001c0: ea0e 323e 92cb 6f3d 1eb3 5b3d 33b7 d63d
000001d0: e64a 11be 4d19 19be 3b09 25be 7c2e 7ebe
000001e0: 6108 023e 5a21 2ebd d09b b6bd 56be 9a3d
000001f0: f0e2 80be 4059 66be da64 863d e747 303e
00000200: 59bd 24bc a3d4 ec3d 9f13 3c3e e289 aebd
00000210: d994 ebbd e88b 3d3e 2f8d 1b3e 1ea3 403e
00000220: 5067 393e 8b5b a6bb 4efb c5bc 4969 2bbe
00000230: 7f35 333d 4867 29bd 0d86 c1bd b768 05be
00000240: b5fa 213c 2537 013e 847a febc 9b6e b03d
00000250: f64e 343e 1e7b 703b de3e bc3d 88dd 97bd
00000260: 19e1 41be 879c 913d 61cd 063b 2dc7 b7bd
00000270: 1502 6dbd 89bb 453e 4b09 c5bc 7290 7b3d
00000280: 53a0 43bd 811b 2abe 8b64 aa3d 0170 c43d
00000290: f4f0 0fbe 7907 d73d c9d0 313e 3a37 91be
000002a0: 9632 b73e 51ba bc3d 4106 2dbc d4af f8bc
000002b0: 0b90 4fbd 2e15 cebd b3a7 e2bc e8f2 aa3d
000002c0: 005c acbd c44f 83bc c549 a83d 9adf 213e
000002d0: 3658 7ebd 54d1 bdbd 6791 3c3d 67d6 d4bd
000002e0: 548c b4bc 4ccd 26be cb3e 7e3e 2f65 5e3e
000002f0: 87c2 85bd 1281 24be f1d0 3ebe 6a7e 05bd
00000300: a083 27bc 7097 483d 5d89 21bd f295 d8bd
00000310: f473 bb3d 0a6c 1abd 1ff6 e03d fcf2 a9bd
00000320: 9bf7 d13d 0008 cebc 3d2a 253e 38eb 64bd
00000330: 55c4 3cbd f4b8 a7bc bb57 23be ca7f 9c3d
00000340: ff22 143e 3416 6abc 6153 253e 6c64 9b3d
00000350: 4d15 4cbd e156 d1bd 8b1f 333e aa9e c03b
-0.096066855 0.14054678 0.16482183 0.10453129 -0.0236884 0.039359316 -0.09730663 0.16449063
0.078690305 -0.09057928 0.06023816 -0.0036674016 -0.053807467 -0.097785756 -0.0568397 -0.09840883
-0.17088303 -0.18443704 -0.07904145 0.14455849 -0.06291772 0.010034139 0.20299043 0.2496268
-0.041469876 0.104100995 -0.111388974 0.13144054 -0.0059840595 0.20544825 -0.04000457 -0.042809725
0.12250238 0.055515546 -0.060918808 -0.06646132 -0.1073927 0.0011250814 -0.08016936 0.05918871
-0.041464 0.07897663 0.028259661 -0.08027573 -0.03432362 -0.059428982 -0.08321283 -0.111752294
0.022225142 -0.07910104 -0.048485387 -0.1930315 -0.31122878 -0.3871924 -0.056000747 0.116231315
0.122982986 -0.11278153 0.0035355906 0.1259447 0.108211584 0.10561822 0.028794842 -0.059409246
0.17163518 0.0300899 -0.15981258 -0.1439362 -0.08070108 0.16376767 0.11393616 -0.098605886
-0.16598846 -0.005957335 0.052949872 -0.0143282255 -0.0579509 0.019918479 0.06059784 -0.082777336
-0.22054711 0.034937184 -0.23396833 -9.9846715e-05 0.049365934 0.12466124 -0.09904159 -0.03808829
0.1131403 0.106862 -0.046449356 -0.15448925 -0.0870432 -0.058182776 0.19515742 -0.13140275
0.054943334 -0.072713844 0.0551063 0.039392546 -0.19433504 0.025958607 0.08343877 0.19628231
0.010514763 -0.16695194 0.07326917 0.084509425 0.16097587 -0.16304019 0.16328578 -0.08193935
0.17388502 0.05854375 0.053637616 0.10484161 -0.14188728 -0.14951058 -0.16116802 -0.2482242
0.12698509 -0.042512275 -0.089164376 0.07555835 -0.2517314 -0.22494984 0.06562205 0.17214929
-0.01005491 0.11563995 0.1836686 -0.08522393 -0.11503 0.18510401 0.15190576 0.18812224
0.18105817 -0.0050768307 -0.024167683 -0.16739382 0.04375219 -0.041358262 -0.09449396 -0.13028227
0.009886433 0.12618692 -0.03106428 0.08614846 0.17608246 0.0036694477 0.091916785 -0.074153006
-0.18933524 0.07109933 0.0020569193 -0.08973537 -0.057863314 0.1930982 -0.024052283 0.06141705
-0.04776032 -0.16612054 0.08319958 0.095916755 -0.1405676 0.10499472 0.17364801 -0.28362447
0.35780782 0.092152245 -0.010560573 -0.030357279 -0.05067448 -0.100626335 -0.027667856 0.08347112
-0.08415985 -0.016029246 0.082171954 0.15807953 -0.062095843 -0.09268442 0.046037104 -0.103924565
-0.02203957 -0.16289252 0.24828641 0.21718286 -0.06531244 -0.16064861 -0.18634392 -0.03259126
-0.010224253 0.048972547 -0.03943764 -0.10575475 0.09152976 -0.03770069 0.10984444 -0.08298299
0.10252305 -0.0251503 0.16129394 -0.055888385 -0.046085674 -0.020473935 -0.15951435 0.07641561
0.14466475 -0.01428752 0.16145088 0.07587513 -0.049825 -0.10221649 0.17492501 0.005878289

0.bias f4 [8]
00000000: 6658 fa3d 6567 b53d 619a e0bd ba73 1b3e
00000010: 3da0 3ebe 3391 02bc 0a12 ff3c 47f1 94bd
0.12223892 0.088576116 -0.109669454 0.15180865 -0.18615814 -0.0079691885 0.031136531 -0.072725825

1.weight f4 [8]
00000000: 1b29 803f 24fc 793f f0a7 723f 1a1e 8a3f
00000010: 008a 823f bf9f 8b3f 835a 703f 3283 833f
1.0012544 0.9765036 0.947875 1.0790436 1.0198364 1.0908126 0.9388811 1.0274413

1.bias f4 [8]
00000000: b0e4 0cbd cf0e 05be 7804 21bd ffdb a73d
00000010: 2113 913d f7ae a53d 215f 423d 5ca7 b93d
-0.03439778 -0.1299393 -0.039310902 0.08196258 0.07083727 0.080900125 0.047454003 0.090651244

1.running_mean f4 [8]
00000000: 5d37 e83c de73 323f d91d 1cbe 6a35 543e
00000010: 323e cfbd 2b69 b9bd 18b1 c2be ffab 193c
0.028346712 0.6970805 -0.15245761 0.20723501 -0.10119285 -0.09053262 -0.38025737 0.009379386

1.running_var f4 [8]
00000000: 861b 223e ef77 4640 2b93 d73d 3892 5b3d
00000010: d2ef ce3d 2236 e13d ef62 713f b243 db3d
0.15830812 3.1010702 0.10526117 0.053606242 0.10104336 0.10996653 0.94291586 0.10706271

3.weight f4 [16, 8, 3, 3]
00000000: 7b88 ab3d a570 a6bd 846a c53d 7859 a83b
00000010: 42f8 12bd c4db 233d b817 133e 623e 613b
00000020: 5399 b93d a477 863c 2d1f dc3c c611 463d
00000030: e751 963d eb9e f8bc 3de6 74bd 6d2d 32bc
00000040: d88e fabb cbf7 f73c fc00 b5bd ba8c 3b3d
00000050: 702e 373e 940d 7f3b 61d9 90bc e0f0 5b3b
00000060: 628a 123e 0bc6 19bd b17e 48bd 56c2 4a3e
00000070: 60fb 053e d6a0 e2bc 55d8 4b3e 7f17 e73d
00000080: 8ced 9f3d d6d2 b9bd dcf4 aa3c ec53 a83c
00000090: a076 e2bc c8a5 dc3c e2d7 afb9 22e9 093c
000000a0: b074 34bd dd28 af3d 7ff8 fd3d 8e1e 0f3e
000000b0: 6a5a e43d 5c0b f03c cb45 83bd 8a9a 8ebd
000000c0: 1725 1cbe b7fe fdbd 0f56 ddbc b613 c4bd
000000d0: 4c01 f0bd e676 273d 1ddf 063c 152e 8d3c
000000e0: f5c1 c73d d787 113e c212 d63c ea11 d93d
000000f0: a7da 793d 5249 47bb eb0c bf3d 6908 c9bd
00000100: 6c50 adbb d2b4 a1bd 07da 27bd ecbd c33d
00000110: 3008 69bd f102 1f3e 0d5a f4bb 4402 e33d
00000120: 153b ed3d 76e4 20bc 1112 813d cffd 943d
00000130: 8e0e df3c 9705 f83c 35d8 db3b 4ce1 a1bd
00000140: 2217 16bb 814f 87bd 18f5 593d 37ce bdbd
00000150: f088 923d d4ce f03c 0dc5 d0bd a738 1cbb
00000160: 6620 0f3b 4faf 2cbc b10d 0fbe 19c7 8fbd
00000170: 6355 f5bc a903 a63d 5eed 6c3d 98e5 b3bd
00000180: e275 f9bd 5b4a f73d 55a9 d83d ab5d 0c3e
00000190: 019b d6bc 8d20 153e 7af9 d63c 9c31 dbbd
000001a0: 1753 f8bd 2dc9 a0bd 48a5 ca3c 9d7a 21be
000001b0: d776 80bd 32e3 df3d 95a5 93bb 4ee4 edbd
000001c0: b961 ffbd 19fb 233d 7565 18be 8a34 00bc
000001d0: 7d5b 4dbd e19a 37bc 22e9 ac3d 282e 213e
000001e0: 4d02 49be b05f fdbd 888d e2bc 0fbc 2ebe
000001f0: a631 66be 0740 a03d ccf7 1ebd 1d90 18be
00000200: 6634 83bc c751 483c b275 81bd 6891 2dbd
00000210: ad61 093d 3fe0 bbbd 6228 e8bc c4ac 9a3d
00000220: 59f0 55bd 6b9b 203d 711a 5fbc f21e 89bd
00000230: fb77 f53c 95e4 ecbd 006b de3d b96e 5fbd
00000240: 7cc9 0dbd 03ff 193e fcaa f13d af83 a53d
00000250: 8192 79bd 10d5 a33c af55 69bd 167b 23be
00000260: c105 c6bd 4ce2 eebd a7fc dbbd c436 a0bd
00000270: 2648 6e3d ea3f f3bd 14e8 ddbc e578 e33c
00000280: 8b4b 843d f43e 193d 99ae 593d 79ad 0bbe
00000290: 886a 9abd 2251 483d e7bc 3e3d 7799 223d
000002a0: c12e c53c ceb5 123d 76f1 243c ea18 c5bb
000002b0: e8f6 bb3d 8a51 103e 6d06 d23c 7851 24be
000002c0: 17e5 3dbc 4a1c 983d f7c4 173d 864e e5bd
000002d0: da89 12bb e2e2 bb3c 1863 703c b17c 223e
000002e0: 24f5 8fbc 4ec9 d3bd 84af 873c 427b 3e3d
000002f0: d0b4 34be df11 043e 5c07 9ebc 71f5 203e
00000300: a555 f83d acb2 59bb 3ecb 883d f494 cdbd
00000310: 53d3 98bd 40c3 4bbd e0bd babd cb63 d93c
00000320: fa1c 72bd fd34 59bb b351 f93c 1f78 abbd
00000330: 4075 613d f38a f4bd 60db abbc d641 0a3d
00000340: e1bf 94bd c2c6 403e efdd d3bb ce35 50bd
00000350: 4aa2 10bd 8034 013e 16f3 6c3d 0fa1 15be
00000360: 692d 86bd 0345 923d 600b f23d 0dae 0a3d
00000370: 218a 913d fa61 943d f519 8dbd 4bea af3d
00000380: 9b03 03bd d6ee a1bd 967f a9bc 7b50 953c
00000390: e3e1 613d 44f5 17bd 39bc a93d 81d3 ff3d
000003a0: 3e2a 3f3d 78ea 713d 7c10 cabc 95e1 7cbd
000003b0: 565e 133c a322 d43d 292d 8a3d 1fd1 98bd
000003c0: ed76 c23d 8bbf f63d cb8f f7bb 0cba a1bc
000003d0: d4b4 5f3d 9d2f 45bd cd7d d0bd 60f5 d73d
000003e0: db17 f93d 49b8 d83d c345 b5bd 9246 2dbd
000003f0: bdee 853d 9e89 08bc 2c91 b8bd 4c6f 773d
0.08375641 -0.08126954 0.09639457 0.0051376186 -0.03588129 0.040004507 0.14364517 0.0034369458
0.090624474 0.016414471 0.026870335 0.048356794 0.073398404 -0.030349215 -0.059789885 -0.010875088
-0.007646423 0.030269524 -0.088380784 0.045788504 0.17888808 0.0038918005 -0.01768178 0.003356032
0.14310601 -0.037542384 -0.048948947 0.19800696 0.13084173 -0.027664583 0.19906743 0.112837784
0.0780898 -0.09073417 0.020868711 0.02054783 -0.027644455 0.02693452 -0.00033539446 0.0084174
-0.044056594 0.08552716 0.124009125 0.139765 0.111500576 0.029302292 -0.06409796 -0.0696307
-0.15248524 -0.124020986 -0.027018575 -0.09574072 -0.11718997 0.040884875 0.008231905 0.017233888
0.09753791 0.14211975 0.026131991 0.1059912 0.06099954 -0.0030408693 0.09328636 -0.09816057
-0.005289128 -0.07895817 -0.04097941 0.09557709 -0.056892574 0.15528466 -0.007457024 0.110844165
0.11583535 -0.009820094 0.06302274 0.07274973 0.02722862 0.030276103 0.0067091235 -0.079043
-0.0022901972 -0.06606961 0.053212255 -0.09267848 0.07155025 0.029395498 -0.101938345 -0.0023837478
0.002183938 -0.010539844 -0.13970067 -0.07020397 -0.029947942 0.08106167 0.05784356 -0.08784026
-0.121806875 0.12074729 0.105791725 0.13707606 -0.026196958 0.14563198 0.026242007 -0.107028216
-0.12125223 -0.07850871 0.024737015 -0.1576943 -0.06272667 0.10932006 -0.004505823 -0.11615811
-0.12469811 0.040034387 -0.14882453 -0.007825026 -0.05013608 -0.01120636 0.08442904 0.15740263
-0.19629784 -0.123717666 -0.027655378 -0.17063926 -0.22479877 0.07824712 -0.038810536 -0.14898725
-0.016016196 0.0122265285 -0.06321277 -0.042375 0.033540417 -0.09173631 -0.028339569 0.07552484
-0.052231167 0.039210718 -0.013617144 -0.066953555 0.029964438 -0.11567036 0.108602524 -0.054548953
-0.03461598 0.15038686 0.11800191 0.08081757 -0.060930733 0.019999057 -0.05696648 -0.15964922
-0.09669066 -0.116642565 -0.10741549 -0.07822946 0.058174275 -0.11877425 -0.027088203 0.027767608
0.06459721 0.037413552 0.053145025 -0.13640393 -0.075398505 0.0489055 0.04656687 0.039697137
0.024070146 0.035817914 0.010067334 -0.006014933 0.09177953 0.14093605 0.02563783 -0.16046703
-0.011590264 0.07427271 0.037053075 -0.11196618 -0.0022359998 0.022935335 0.014672063 0.15867878
-0.017572947 -0.1034113 0.016563185 0.046504267 -0.176471 0.12897442 -0.019290619 0.15718628
0.121257104 -0.003321807 0.0667939 -0.10038176 -0.07462182 -0.04974675 -0.09118247 0.026536843
-0.059109665 -0.0033143156 0.030434465 -0.08372521 0.05504346 -0.11940565 -0.02097863 0.033754192
-0.072631605 0.1882582 -0.0064656655 -0.050832562 -0.03531102 0.12617683 0.057849012 -0.1461222
-0.0655163 0.07142069 0.11818576 0.033857394 0.07106424 0.0724525 -0.068897165 0.0858961
-0.03198586 -0.079068825 -0.02069072 0.018226853 0.055147063 -0.037099138 0.08287854 0.12491513
0.046671145 0.059061497 -0.024666063 -0.06173857 0.008994659 0.10358169 0.06746895 -0.07461762
0.094953395 0.12048253 -0.0075549833 -0.019742034 0.05461581 -0.04814111 -0.101802446 0.105448484
0.12162753 0.105820246 -0.088511966 -0.04230363 0.06539676 -0.008333592 -0.09012064 0.060408875

3.bias f4 [16]
00000000: f716 9cbd 74d7 b3bd 01c2 233d e33c bbbd
00000010: d19f d53d 730b bbbd 0700 1d3d da1e 383d
00000020: e10d 36bd fa83 6e3d f419 b3bd f832 cb3b
00000030: f818 14be 710b 37bd b514 e3bd c425 6bb9
-0.07621568 -0.08781329 0.03997994 -0.091424726 0.10430873 -0.09133043 0.038330104 0.044951297
-0.04444683 0.05823133 -0.087451845 0.0062011443 -0.1446265 -0.044688646 -0.11087934 -0.00022425415

4.weight f4 [16]
00000000: c631 513f fbac 8e3f 2be5 9d3f 547e 803f
00000010: 1674 7d3f b977 7f3f 8f07 613f de73 6d3f
00000020: 0163 753f 085e 713f 3d33 683f c22e 813f
00000030: 9d49 a23f 108c 743f 35c7 683f 843d 473f
0.81716573 1.114654 1.2335562 1.0038552 0.9900526 0.9979206 0.8790216 0.92754924
0.9585419 0.94284105 0.90703183 1.0092394 1.2678715 0.9552622 0.90928966 0.7782824

4.bias f4 [16]
00000000: 599d 85be 70b2 ab3d 22b3 02bd 289b 97bd
00000010: 6c36 3cbd 9c73 8fbd ffa1 85bd 7b1f bebd
00000020: e93e a9bd 156d dbbd f731 c6bd 28c7 1dbd
00000030: 99dd 2dbd 172b f0bd 1f2f e1bd 16ca 57be
-0.2609661 0.083836436 -0.031909116 -0.074026406 -0.04595034 -0.070044726 -0.06525039 -0.09283348
-0.08263952 -0.10714165 -0.09677499 -0.03852001 -0.04244766 -0.11726969 -0.10995316 -0.21073183

4.running_mean f4 [16]
00000000: f93d 263f dfbe 27bf aca8 00bc 96a7 f3be
00000010: 272a 393f fd61 aebe 2c97 983d c793 103f
00000020: 1a24 e8be e18a 363f 43e0 aa3e 780b 98be
00000030: 99e0 8ebe f0b2 6e3f 53a8 e63d 2380 dd3e
0.6493831 -0.6552562 -0.0078527145 -0.47588795 0.72329944 -0.34059134 0.07450709 0.5647549
-0.45340043 0.7130566 0.33374223 -0.2969625 -0.2790573 0.93241787 0.11262574 0.43261823

4.running_var f4 [16]
00000000: f7cf e63e 8d83 9f3e 190c 253e c001 e13e
00000010: a0fd be3e 0528 8c3e fbef 533e 7286 a93e
00000020: de8b 7e3f b385 4c3e d4c1 6d3f 663f ec3e
00000030: 47c5 c53d 6fe1 803f f372 af3e 0fc5 a83e
0.4508054 0.31155053 0.16117896 0.43946648 0.37302876 0.27374282 0.20697014 0.33110386
0.9943217 0.19972877 0.92873883 0.4614212 0.09656768 1.0068797 0.34267387 0.32962844

6.weight f4 [16, 16, 5, 5]
00000000: 2689 4a3c 8aea 1cbd 24e1 213d d417 0dbd
00000010: 4608 693c 330a 32bd 0517 bebb 4dcc c43c
00000020: 02a7 1abd 47a0 873a bca2 20bd fec8 483c
00000030: 326c 1cbc 0845 0b3d d976 803c b876 613c
00000040: 4be3 4cbd 3f95 11bc 3d09 93bc 8f3d 1cbb
00000050: e030 ad3c 8bbd 4ebb f880 c43b f501 54bc
00000060: 9ae4 d63b 532e 0c3d 2fc2 2bbd bf7e 8cbd
00000070: 2144 533c b6bd 19bd 832d 003c 1c3c 90bd
00000080: cb15 f9bc e520 a8bc 7125 dfbc 11b9 b2ba
00000090: fa4a 39bc c0ec a23c 141c d23c 339e 37bd
000000a0: 3f1e 263c f59d bf3c 8911 75bd 61e1 3ebc
000000b0: 08fc 383c 48c7 fbba 8187 8dbd 058b c0bc
000000c0: b8e3 60bd 91ef 86bc b795 8ebd c669 33bd
000000d0: 343a 83ba b5b2 393d ee8f 8abc e67f 76bd
000000e0: bf98 843c e7a1 38bd 767b 0c3d b897 353d
000000f0: 28ad 4bbc a3d5 1aba 8ad4 2fbd b5d9 d5bc
00000100: 1dc0 a33c c37b 89bc 7670 4cbc a5c1 313c
00000110: 6315 b3ba 53c6 f3bc 750c debb 73cd 8dbb
00000120: 705a 863b 8cf0 05bd 0a38 943d 3dea 663d
00000130: 8fbd a43d d7bb 4a3d bdf5 663d e652 4b3d
00000140: 3c19 b7b9 cece 563d 7174 2cbc aa47 893d
00000150: 618c 833d b37d 903d b816 c73c ebc1 1b3d
00000160: a9f3 d33c bc89 443d 59cc 973d 3c09 913d
00000170: f764 cd3c 4801 4a3d 324f 913d 191c 363d
00000180: 33e7 e0bb 5287 6ebc d36a 9b3d e779 a43d
00000190: 761a 033d c212 113d 3cfc c43d e128 153c
000001a0: 65b8 1e3d 24bb 233d 3c7c b13c 5860 553d
000001b0: 1689 2e3d ff9e 7d3d e5e3 c23d 7d4d 123d
000001c0: e58d 793d f450 b33d 29a0 313d b0fa ec3c
000001d0: 9141 303d b182 a33c b0a9 5d3d 0e92 f83c
000001e0: 614d 1c3b 7cb4 183c 08d3 a93d 6ccb 913c
000001f0: 7a9d 713b d124 14bc 2f30 853d 2f2a 68bc
00000200: 52cb b1bc edd3 5b3d 841d 623d 89dc cdbb
00000210: 9c3e aabc 737b da3c 2c45 24bc 2b68 d13c
00000220: 4a1e 1abd 06e2 223d a688 9abc 652d 493d
00000230: 9679 403d ebce 7c3c dd57 123d 6bdc 233c
00000240: f09d 603d 0b32 9b3d 08d9 ecbb 33cd 92bc
00000250: 699f fcbc a340 523d 2c86 15bc dbbb 39bd
00000260: 59be 383c 3e28 973b 8c98 8dbd 5004 43bd
00000270: 99cf 4cbd 43d0 85bd 4099 90bd 13b2 bbbd
00000280: 51d2 c63c da56 da3c 283e 393c 8a53 2bbd
00000290: f2b3 cfbd cf0a 24bd 780e b33c 76d3 d23b
000002a0: 10fe 8fbd 8bd6 c8bd daa0 913c 4940 c93c
000002b0: 1623 8ebd ab40 53bd 1c02 17bd 7880 52bd
000002c0: 009b 06bd e6aa 2ebd d7ed 8f3c c6b9 00bd
000002d0: 51d7 44bd 83df 47bd 938a 2fbd 42e5 95bc
000002e0: 1193 4ebd c307 b93b 82a0 3abd c9b6 22bd
000002f0: c324 dcbc c47a 94bc a5c9 4f3b dd94 6ebd
00000300: aa86 2abc 4e91 89bd 5cc8 21bd 2118 87bd
00000310: bd96 de3c 3309 35bd 7b92 47bc e1cc c8bc
00000320: 8531 a93d 03ed c93d 4b17 133d ad0a b63d
00000330: 387f f03d c27b 1a3d c616 ac3d 6dc4 473d
00000340: a0fe 5d3d 8b43 e13d e55a bf3d 1043 9e3d
00000350: 9d66 d43d e5d0 b73d 1c5b 703d 96b4 a83d
00000360: 6dce 093d d52f e63d a5ba cf3d 785e 293d
00000370: 0e48 8a3d b937 973d b6fa a13d 60c6 d83d
00000380: b948 923d 5bde c6bb 8b7f ecbb ef44 0dbc
00000390: 6412 cabc a747 06bc a8b3 953c 0f63 c53b
000003a0: dc67 8e3c cc89 fdbc bf1e d43b b301 8bbc
000003b0: 0bc4 f4bc 8d5d 97bc dc2a c3ba 70f4 d83b
000003c0: 8e58 88bc 7c0f 50bd ee80 21bc 94de b6bc
000003d0: 6c90 813c 3424 3ebd 9811 a5bc bbe0 67bd
000003e0: 9fd6 c6bc 388c d9bc 16c4 d1bd 25f8 33be
000003f0: f27d 07be 63c6 27be 97da f3bd 5a1f f4bd
0.0123618 -0.03830961 0.03952135 -0.034446552 0.014223164 -0.043466758 -0.005801084 0.0240232
-0.037756927 0.0010347449 -0.039217696 0.0122549515 -0.00954728 0.03400138 0.015681671 0.013761215
-0.05002145 -0.008885681 -0.017948741 -0.0023840403 0.02114147 -0.0031546082 0.0059968196 -0.01293992
0.006558013 0.034223866 -0.041933235 -0.068601124 0.012894661 -0.037534438 0.007823351 -0.07042715
-0.0304059 -0.020523498 -0.027239533 -0.0013635476 -0.01130938 0.019888282 0.025648154 -0.044828605
0.010139047 0.02339075 -0.059831176 -0.011650414 0.011290558 -0.0019209171 -0.06910611 -0.02350379
-0.05490467 -0.016471656 -0.069621496 -0.043802045 -0.0010011853 0.045336444 -0.016914334 -0.060180567
0.016186116 -0.045076277 0.03429743 0.044334143 -0.01243142 -0.0005906468 -0.042927302 -0.026104787
0.019989068 -0.016782647 -0.012477985 0.010849391 -0.001366299 -0.029757654 -0.0067763873 -0.00432747
0.0041001365 -0.032700107 0.07237251 0.05637573 0.08043968 0.049495544 0.056386698 0.049639605
-0.0003492328 0.052443318 -0.010525809 0.06703122 0.064232595 0.07055225 0.024302825 0.03802673
0.025873022 0.047982916 0.07412023 0.070818394 0.025072558 0.04931763 0.070951834 0.04446039
-0.0068634986 -0.01455863 0.075887345 0.080310635 0.032007657 0.03541828 0.096184224 0.009103985
0.03875007 0.039973393 0.021665685 0.052093834 0.042611204 0.06191921 0.09516124 0.03571843
0.060926337 0.08755675 0.04336563 0.02892813 0.04303128 0.01995978 0.054116905 0.030343082
0.0023849832 0.009320375 0.08292204 0.017797194 0.0036867545 -0.009041981 0.06503331 -0.014170214
-0.021703396 0.053668905 0.05520393 -0.0062823934 -0.020781808 0.026670193 -0.0100262575 0.025562366
-0.037626542 0.039766334 -0.018863987 0.049115557 0.046990953 0.015430192 0.035728324 0.010001282
0.05483812 0.07577904 -0.0072280206 -0.017920112 -0.030837731 0.051331174 -0.009126227 -0.04534517
0.011275851 0.0046129515 -0.06913862 -0.047611535 -0.050002668 -0.065338634 -0.0706048 -0.09164824
0.024270209 0.026652742 0.011306323 -0.041827716 -0.10141744 -0.04004937 0.021857485 0.0064338995
-0.070308805 -0.09806546 0.017776895 0.024566786 -0.06940286 -0.051575344 -0.036867246 -0.05139205
-0.032862663 -0.04264345 0.017569466 -0.031427167 -0.048056904 -0.04879714 -0.042856764 -0.018297795
-0.050433222 0.005646677 -0.04556323 -0.0397251 -0.026872998 -0.018124945 0.0031705883 -0.058247436
-0.010408083 -0.06717168 -0.03949772 -0.06596399 0.027171487 -0.044198226 -0.01218092 -0.024511756
0.08261398 0.098596595 0.035910886 0.08888755 0.11743015 0.03771568 0.08402781 0.04877131
0.054197907 0.10999211 0.09343509 0.07727635 0.103711344 0.0897539 0.05868064 0.08237569
0.03364413 0.11239592 0.101430215 0.041349858 0.067520246 0.07383675 0.079091474 0.10584712
0.07142777 -0.0060689873 -0.0072173527 -0.008622392 -0.024666972 -0.008195794 0.018274143 0.0060237716
0.017383508 -0.030949496 0.006473392 -0.016968584 -0.029878637 -0.018477226 -0.0014890092 0.006620936
-0.016643789 -0.050796017 -0.009857399 -0.02232293 0.015815936 -0.046421245 -0.02014999 -0.056610804
-0.024272261 -0.02655612 -0.102424785 -0.17575128 -0.13231638 -0.16384272 -0.11906927 -0.11920042

6.bias f4 [16]
00000000: 70e8 5b3c 4558 9abd db84 29bd a3c9 0bbd
00000010: 7820 613c 0490 9f3c a126 bdbd 1e5d 163d
00000020: b808 2ebc 1def dd3d 8d78 00be 7c8c adbc
00000030: 7327 e7ba 1350 d4bc f653 af3c d6aa c53c
0.013422117 -0.07536367 -0.041386466 -0.034127843 0.013740651 0.019477852 -0.092358835 0.036709897
-0.010622196 0.10836623 -0.12545986 -0.021185152 -0.0017635658 -0.025917089 0.02140234 0.024129312

7.weight f4 [16]
00000000: 774f 843f c505 893f e787 783f 1ae3 803f
00000010: 71e6 7a3f 7fba 803f cd39 713f cfcf 813f
00000020: a6de 7a3f a7c5 823f 8624 6f3f 5b2a 6e3f
00000030: 5829 723f 775e 693f 81cb 913f 7574 733f
1.0336751 1.0704886 0.9708237 1.0069306 0.98007876 1.0056914 0.9422882 1.0141543
0.97995985 1.0216569 0.93415105 0.9303338 0.94594336 0.91159767 1.139023 0.95099574

7.bias f4 [16]
00000000: e654 edbd 7400 5e3d e806 c8bd acc7 0dbe
00000010: 8850 09be 1a5a f7bd 0a73 2ebd 1231 e7bc
00000020: b47c 46be bfed b3bd 1aed bebd 2c27 e8bd
00000030: 9670 d6bd 5588 a0bd 8dd7 763d 8feb c4bd
-0.11588459 0.05419965 -0.09766942 -0.138457 -0.13409626 -0.120777324 -0.04259018 -0.02822164
-0.19383508 -0.08785581 -0.09322567 -0.113355964 -0.10470693 -0.07838503 0.06026416 -0.09615242

7.running_mean f4 [16]
00000000: 0751 82bf aadd 87bf 55e8 c1bf daff 15c0
00000010: 23f0 fa3e b56f 9c3f 42e9 05c0 d375 21c0
00000020: 558a 09c0 f5a5 f5bf 4c65 dabf 5175 5f3f
00000030: ca6d cbbf 184e f7bf 6186 473d e714 d0bf
-1.0180978 -1.0614522 -1.5149027 -2.343741 0.49011335 1.222159 -2.092362 -2.5228164
-2.149068 -1.9191271 -1.7062163 0.87288386 -1.589288 -1.9320707 0.048712138 -1.6256379

7.running_var f4 [16]
00000000: 8477 bf41 eb30 b33f eaa0 b740 b6b5 1841
00000010: 2f9e c040 7e65 4840 798e 5940 4aab 7040
00000020: 7102 df40 f2e7 b440 b4d0 9340 c135 c440
00000030: a629 5840 89b4 2a40 dcee 8d3f 9134 b140
23.933357 1.3999304 5.738393 9.544363 6.0193095 3.1311946 3.3993208 3.7604547
6.969048 5.6533136 4.6192265 6.1315618 3.377542 2.667269 1.1088519 5.537667

9.weight f4 [8, 16, 5, 5]
00000000: 45b6 c53d efd7 b53d 9db6 bd3d d591 943d
00000010: cf27 e53d f2ae c73d 1cad 043d 1dbe aa3d
00000020: 4bea a33c 2a05 573d 4cc0 7c3d 327c 193d
00000030: 9f94 193d 4b3d b63c 595f ef3d 6e63 323d
00000040: 20d2 103d 6d50 903d e04d b23c ae6f e53d
00000050: f35c 763d ccc0 d03d fed0 8b3c 7772 d43d
00000060: 74b1 ba3d 12e0 81bd b7e9 5e3c f8f7 b23d
00000070: f0d2 03bc 9b1d 8dbd 3245 1bbc 6fdb 0f3c
00000080: 0718 2d3e 651e 293e 01e9 ad3c 54fa c63b
00000090: 0dc9 f0bc 5b53 04be a22d 59bd 812c b2ba
000000a0: 1b70 183d 1756 64bd cb9b c8bd 273a 25be
000000b0: 5a2b 21bd ebe2 383d f707 753d 063f a33c
000000c0: 2661 8a3d ca9f 61bc 0155 563d 84ea 4c3d
000000d0: 755d 61bc 5831 8cbd a825 7dbd 3f1e 14bd
000000e0: 1d1b 103d bdb5 a63d ba80 553d 0a49 67bd
000000f0: 26fa 99bc d3a6 3fbd c147 8cbd 0376 e83d
00000100: b6eb 8b3c bd88 bd3b d126 9d3d 5f93 0d3d
00000110: a3b5 5d3d b55c 1c3d 0f23 10b8 0b1b 45bd
00000120: 173f 4d3d c7c7 edbc 86c0 a6bd d723 7b3b
00000130: dd01 9bbd 83ac adbd 82e3 c2ba 971a 9c3c
00000140: 0a05 a9bd a593 d03c aeec 9abc 4277 003c
00000150: fe3e 7abd 82c2 843c 80a5 36bd 5ea7 cc3d
00000160: 4de6 d23d 8033 d6bc 2013 45bd 5fe7 813b
00000170: 5047 12bd 19f9 ff3b 3893 2dbc 9524 abbc
00000180: 6fcd 68bd 9455 b0bd 4a10 45bd c934 61bd
00000190: b6d8 aabd befe e2bc 791e 86bd 150f 92bd
000001a0: bdf3 473d 9883 84bd a78a a23b 0839 cf3b
000001b0: cfe5 90bd 2c63 b7bd ffeb f63b 41e3 433c
000001c0: 5346 6bbd 3949 f43c 9de9 00bd bedf febc
000001d0: f6bf 84bc e5d7 d8bc fae5 c13b 4fab 393b
000001e0: b399 87bd 5714 a7bd 38db 6dbc be5b 33bd
000001f0: 9db3 5e3d 4417 643d c555 6cbc aa3e 02bd
00000200: 6e20 653c 066a 553d 2679 6bbc 1c11 54bb
00000210: 9b9d 4cbd 1d2f aa3c e589 5dbc 21c6 48bc
00000220: 60e5 13bd 707f a6bd 6b74 88bd b067 753c
00000230: 7f66 e23c 2676 163d 9bee 1f3d 6924 773c
00000240: d208 043d 5a65 543d 796f 4dbc 8ab8 2dbc
00000250: 3cdc 853d f562 99bb 87d6 343d ad2d ebbd
00000260: b322 95bd 4413 f03c 01fc 87ba a2a6 463d
00000270: 8b6e 973d ad4c 65bc 50b0 8cbd a424 be3c
00000280: f553 1a3d b242 3abb 4490 10bd 395d 8e3d
00000290: d563 bebd 698a c3bb 963e 19bc bd99 f2bb
000002a0: 58c9 b23b 88a9 b33d 0fac 9dbd 29c1 cabd
000002b0: e36c fabb 93b4 153d aa08 af3d bc26 2c3d
000002c0: fd26 3abd 9e0a 3c3d 81dc 76bd 840a 23bb
000002d0: 686d 55bc 475b 793d 74a5 eb3c 5c43 a73d
000002e0: 7776 96bd e263 ef3c ba1c b23d 3965 003e
000002f0: 676b 9a3c a44c a9bc 95d3 92bd 98f0 933b
00000300: cea5 0fbe 8d0a 25bd 49ac 193e ff25 b0bc
00000310: 091e 043d a500 f33c 2750 05be 07e7 2d3e
00000320: 665a 813d 2e4a cabc cd3e 3cbd 36c0 d33c
00000330: f484 a2bd a9d0 c6bc 5d0a 283d 5026 683d
00000340: d8ce 933d 0e12 333d 2f7e f8bc 0144 b63c
00000350: 861d 05bd 828a 073d 53ef 423d 4d89 41bd
00000360: 47ad aabd 02c4 3abd d098 46bc 3079 c33a
00000370: a60a 903d cc89 0dbc 055a 73bd e1cb 70bc
00000380: 9089 a9bc 1bce 2b3d d968 debb ae1f 0dbd
00000390: a285 b6bd f800 083d 6e84 50bd e918 6cbd
000003a0: b8ef f0bc 9402 61bd de33 aabd a29a df3d
000003b0: 9f78 a13b bd1c ad3d d7f4 e13d 9958 0f3d
000003c0: 495d 933d 90be 1f3e 9adb 6dbd c1d9 8d3d
000003d0: a00d 193d 9942 89bd 7e99 1d3d 4274 64bd
000003e0: b84b ebbd de8a b0bd 9a79 88bd 4535 373d
000003f0: f2a6 773d 728f d1bc 643b a03c a90e 30bd
0.09653906 0.08879077 0.09263346 0.07254378 0.111892335 0.09750165 0.032391652 0.083370425
0.02000918 0.05249516 0.061706826 0.037471958 0.03749525 0.022246024 0.11688108 0.043551855
0.03535664 0.0704659 0.02176565 0.11202942 0.060147237 0.10193023 0.017067429 0.10373395
0.09115878 -0.06341566 0.013605527 0.087387025 -0.008045897 -0.068904124 -0.009476947 0.008780344
0.16903697 0.16515501 0.021229269 0.006072322 -0.029392743 -0.12922423 -0.053022034 -0.0013593585
0.037216287 -0.055746164 -0.0979534 -0.16135465 -0.039347984 0.04513828 0.05982205 0.019927513
0.06756811 -0.013771007 0.05232716 0.05002834 -0.013755192 -0.06845349 -0.06180349 -0.036161657
0.035182107 0.081401326 0.052124716 -0.05646614 -0.018796038 -0.046789955 -0.068496235 0.11350634
0.01708017 0.0057841227 0.07673419 0.034564372 0.0541283 0.03817435 -3.4364926e-05 -0.048121493
0.050108995 -0.029025925 -0.0814219 0.0038320923 -0.07568715 -0.084801696 -0.0014868828 0.019055648
-0.08252914 0.025461027 -0.018911686 0.007840933 -0.06109523 0.01620603 -0.044591427 0.0999286
0.10297833 -0.026147604 -0.048113942 0.003964349 -0.03571254 0.007811677 -0.010594182 -0.020891467
-0.05683654 -0.08610073 -0.048111238 -0.05498198 -0.083421156 -0.027709361 -0.06548781 -0.07131783
0.04881643 -0.06470412 0.0049603763 0.0063239373 -0.070750825 -0.089544624 0.007535457 0.011956037
-0.057440113 0.029820072 -0.03147279 -0.031112548 -0.016204815 -0.026470134 0.005917308 0.0028330868
-0.06621113 -0.081581764 -0.014517598 -0.043788664 0.05437051 0.05568625 -0.014424746 -0.031798042
0.013984783 0.052103065 -0.014372146 -0.003235883 -0.04995499 0.020774418 -0.013521646 -0.012254269
-0.03610742 -0.081297755 -0.0666283 0.014978334 0.027636765 0.03673377 0.03904591 0.015084364
0.032234974 0.05185447 -0.012538784 -0.01060308 0.06536147 -0.004680986 0.0441499 -0.11483321
-0.07282009 0.029306062 -0.0010374786 0.048498757 0.07394131 -0.013995332 -0.068695664 0.023210831
0.037677724 -0.00284211 -0.035293832 0.069513746 -0.09296385 -0.0059674275 -0.009353301 -0.007403581
0.005456131 0.0877257 -0.07698833 -0.099001236 -0.007642375 0.036549162 0.085465744 0.042029127
-0.04544734 0.045908563 -0.060268883 -0.0024878094 -0.013026573 0.060878064 0.028765418 0.08167145
-0.07346814 0.029222433 0.086968854 0.12538613 0.018850042 -0.020666428 -0.07169262 0.004514765
-0.14028093 -0.040293265 0.15007128 -0.021502493 0.032255206 0.029663393 -0.13018857 0.16982661
0.0631607 -0.024693575 -0.04595833 0.02584849 -0.07935515 -0.024269419 0.04102551 0.056677163
0.07217187 0.04371839 -0.030333607 0.022249224 -0.03249886 0.033091076 0.04759152 -0.04725008
-0.08333831 -0.045597084 -0.012121394 0.0014913436 0.07033281 -0.00863881 -0.05941202 -0.014697046
-0.020695478 0.041944604 -0.006787401 -0.03445404 -0.08912207 0.03320405 -0.050907545 -0.057640944
-0.029411182 -0.0549341 -0.08310674 0.10918166 0.0049277092 0.08452747 0.110330276 0.034996603
0.07195527 0.15600038 -0.058070756 0.06926299 0.03736651 -0.067021556 0.03847646 -0.055774935
-0.114890516 -0.08620237 -0.06663819 0.044728536 0.060461946 -0.025581095 0.01955957 -0.04298273

9.bias f4 [8]
00000000: 087f d83c 7067 983c 6eba 903c 1082 40bd
00000010: 09cd b4bd 9555 11be e4f0 af3d ddc4 813d
0.02642776 0.01860401 0.017667022 -0.046999037 -0.0882817 -0.14192803 0.08590868 0.06336377

10.weight f4 [8]
00000000: 7568 a13f 03c6 753f 0d95 633f fd61 813f
00000010: e888 763f fb9e 723f 8443 7a3f ee7d 803f
1.2610003 0.96005267 0.8889931 1.0108029 0.9630265 0.94773835 0.9775927 1.0038431

10.bias f4 [8]
00000000: cd15 aabc a196 fdbb e2ad c6bd 826f 13bd
00000010: 9464 a2bd 5b62 66bc af84 d2bd 71bb 03bd
-0.020762349 -0.0077389036 -0.09701134 -0.035995014 -0.0792934 -0.014061536 -0.10279214 -0.03216118

10.running_mean f4 [8]
00000000: 778f 7c3e 08a9 0bbf 1e68 94bf cebf d8bf
00000010: dddd 5fc0 6134 20bf 0ac6 e3bf 9010 7bbf
0.24664102 -0.54554796 -1.1594274 -1.6933534 -3.4979165 -0.62579924 -1.7794812 -0.9807215

10.running_var f4 [8]
00000000: 1558 413f 75bd 7a40 2a22 3340 d579 ea40
00000010: 01e9 a540 8d7e df3f 5702 a840 92f4 0341
0.7552503 3.9178135 2.7989602 7.327372 5.184693 1.7460495 5.2502856 8.24721

13.weight f4 [4, 8, 3, 3]
00000000: 135d 9db9 7616 a83b 1c59 563c ff5b b03c
00000010: f94e 563c 83d6 093d f5bb b83b 184a 273a
00000020: 3078 f63c 4118 043c 49cd 4b3e 444b 953c
00000030: bab4 923d f65a b63d 9451 043e 65b2 0dbd
00000040: 855c 03bd 094f 27bd 27b6 c8bc 2dba ffbb
00000050: 8e61 6cba 779f 843e ee6c 733e feaa 7fbb
00000060: efd5 3c3e a2fc 2f3d 3431 0dbe 7fee abbd
00000070: e263 953c 704c 17be ef95 f63b 9799 ad3c
00000080: ae57 11bd 963a 78bc 6d8e cabd f12e afbc
00000090: b3dc 113e 8865 f03d 1b66 843d 9e02 9ebd
000000a0: 7e35 443e fb85 423e bdf2 75bd 41dd 2f3c
000000b0: 6ddd acbc e345 0a3d 34a3 c33d 7450 343d
000000c0: b4c0 b83a b338 d43d e751 61bc c8d8 30bc
000000d0: 147e 673b f38e 4ebd 8709 50bd 23b5 f7bd
000000e0: 3ab1 48bc 8c7f 15bb b8e5 7fbc 368a fdbd
000000f0: 6768 16bd 4e7b a4bd 2fef 9abc bc26 f73d
00000100: eb32 ba3d 059c 3c3d ddc4 b03d a478 70bd
00000110: 9cc4 093e 4f31 2fbd f96d aabc 69fd 90bd
00000120: fac7 3fbd 582a bfbd 0be1 4f3e 618a 9d3e
00000130: f6ec 0ebe b801 87bd dca5 aebd fa36 f5bc
00000140: 8ed9 443e 7b51 86bc c0ce 91bd 8c2b 0e3e
00000150: 7746 c33d 3dc4 b1bd 6427 8dbd 0bfc d83d
00000160: de30 aabd dfd9 193c 10aa d83c d0d2 abbd
00000170: 1f23 edbc 6221 453b 5d9a babc 4a2d 88bd
00000180: 1499 453c dcfe b73d 370e 26bd c295 1b3c
00000190: 19f1 073e 4928 703d ab33 8fbd d924 433d
000001a0: 6794 e63c 9f17 d13d ee06 5d3d 3163 c23d
000001b0: 33e8 b9bd 2b9d 2a3d 26da 0b3b da0f 903d
000001c0: bb6c 8e3d 4d31 c0bc 0dec 4dbd 6b50 013d
000001d0: 7e14 4f3d a83e a93b 6993 71bc 0ca2 bb3d
000001e0: 771c 993d 6986 02be 6bd2 d23d fc36 23bb
000001f0: e656 2b3d 5fc6 0dbb a1ec 53bd da6c fa3d
00000200: d331 0e3e f89e 023e 8fb3 56bd 1938 6bbc
00000210: e507 a8bb 80ac 80bd 6293 43bd 35e5 3fbd
00000220: d5e0 82bc 8770 2cbb 502b a5bd e5f7 f63d
00000230: e41f 4abc c396 603d baba b5bd 8a5f 20bd
00000240: aa5c 82bd d738 55bd 083a 12bd b5fa 13bd
00000250: b70e abbd 64e6 2cbd 706c eebc fb55 f63b
00000260: cc66 77bc 59a2 a43d dc62 163e 9a96 0a3e
00000270: 16a0 b0bc 4260 213e cf80 6cbc 7670 9c3d
00000280: 99ef 16bd e745 673d 6c20 d33d 6e7f 0dbd
00000290: 7264 15be 1055 39bd 40c9 f0bc e5de 29be
000002a0: 1d79 bb3d e0a2 b6bd 7983 50bd 7450 36bc
000002b0: 00f3 c3bd 7194 31bd c0b4 de3c 0b01 90bd
000002c0: ae73 c4bd d7e9 80bd 1da2 89bd 3054 98bd
000002d0: 6b4f 8a3d b35d 373e 19e6 32bd b10c 833c
000002e0: 549e 083e 60a1 363e 322c 0bbd 4489 ea3d
000002f0: 75ce d63d 0822 8e3d 1805 16bd bddb 42bd
00000300: 2ecc 103e a15f 123e 69d1 68bd b174 523d
00000310: e313 6abd 4e1c 8b3c b17a ac3d 0f77 c3bb
00000320: 67e1 963c 3a37 263d 22ff a4bd c767 97bc
00000330: 36fe 0bbe c1f0 6a3d f0e8 82bd ab47 673d
00000340: f245 58bd a00b 393e 4460 3f3e 945a d13d
00000350: c2cb 8cbc 3e59 b63d 071b b93d f9b0 3b3e
00000360: 676d 87bd c081 abbd 5684 60bd 759b 94bd
00000370: b129 bdbd e2ac 0cbd 53c1 1ebd aef0 05bd
00000380: c441 8bbc f5a9 cd3b 6737 8b3d 5f32 91bc
00000390: c32c 55bd 3259 4ebc a819 03bd 1f73 a63d
000003a0: b967 0f3d 3368 a53d 3695 05be 397d 7ebd
000003b0: dfd3 85bc 49ec 24bd 3c71 4abe a55e 03be
000003c0: 6019 fabc b7c8 503d c32f 90bd 8aff 5f3d
000003d0: 54c3 0ebd 9c78 0ebe ddf4 91bc 80e8 453d
000003e0: 658e fabd 3ffe a1bd f369 0dbe cb6e 5f3d
000003f0: 41b4 62bc 6b38 fb3d d739 1a3e dddc d5bc
-0.0003001472 0.0051296307 0.013082769 0.021528242 0.013080352 0.03365184 0.0056376406 0.0006381585
0.030086607 0.008062423 0.19902529 0.018224366 0.07163377 0.08904068 0.12921745 -0.03459396
-0.032070655 -0.04084686 -0.02450092 -0.0078041763 -0.00090172223 0.25902912 0.23772022 -0.0039011831
0.18440984 0.04296554 -0.13788301 -0.08395099 0.018236104 -0.14775252 0.0075251977 0.021191401
-0.03548401 -0.015150687 -0.09890447 -0.021384688 0.14244346 0.117381155 0.064647876 -0.07715343
0.1916103 0.18996422 -0.060045946 0.010733903 -0.021101678 0.033758055 0.09552613 0.04402204
0.0014095516 0.10362377 -0.013752437 -0.010793872 0.003532295 -0.050429296 -0.050790336 -0.12095096
-0.012249285 -0.002281162 -0.015618734 -0.12379877 -0.03672066 -0.08031331 -0.01891288 0.12067935
0.09091743 0.04604723 0.08631299 -0.058708802 0.13453907 -0.042771634 -0.020804392 -0.07079584
-0.046821572 -0.09334248 0.20300691 0.30769637 -0.13957581 -0.06592125 -0.08527729 -0.029933441
0.19223616 -0.016396275 -0.071195126 0.138838 0.095349245 -0.086800076 -0.06892279 0.105949484
-0.08310102 0.009390323 0.02644828 -0.08389819 -0.028947411 0.0030079712 -0.022778684 -0.06649263
0.012060422 0.089841574 -0.0405409 0.009496154 0.13275565 0.05863217 -0.06992277 0.047642563
0.028146936 0.102095835 0.053961687 0.094915755 -0.090774916 0.041653793 0.0021339743 0.070342734
0.069543324 -0.023461008 -0.050273944 0.031570833 0.050556652 0.00516494 -0.014744618 0.09161767
0.07476132 -0.12746586 0.1029404 -0.00249046 0.04183092 -0.002163313 -0.05173934 0.12227793
0.13886194 0.12755954 -0.052417334 -0.014356636 -0.005127894 -0.06282902 -0.047747977 -0.04684945
-0.015976349 -0.0026312189 -0.08064902 0.12059001 -0.012336705 0.054831278 -0.08873506 -0.039153613
-0.063653305 -0.05205616 -0.035699874 -0.036127765 -0.08352416 -0.042211905 -0.029104441 0.007517574
-0.015100192 0.08038778 0.1468615 0.13534012 -0.02156071 0.15759376 -0.014435007 0.07638638
-0.036849592 0.05646315 0.10308918 -0.034545355 -0.14589098 -0.045247138 -0.029392838 -0.16588934
0.0915396 -0.08917785 -0.050906632 -0.01112758 -0.09567833 -0.043354455 0.027185798 -0.07031449
-0.09592377 -0.062946014 -0.06720374 -0.074379325 0.06753429 0.17906837 -0.04367647 0.015997263
0.13341647 0.17834997 -0.033977695 0.114519626 0.10488597 0.06940085 -0.03662595 -0.04757284
0.14140388 0.14294292 -0.056840334 0.051380817 -0.05714787 0.01698127 0.08421839 -0.0059651206
0.018418027 0.040580012 -0.08056475 -0.018482102 -0.13671193 0.057358507 -0.063920856 0.056464832
-0.05280108 0.18070841 0.18689066 0.102223545 -0.017187003 0.0890374 0.09038358 0.18329228
-0.06612664 -0.08374357 -0.054813705 -0.072562136 -0.09236468 -0.03434456 -0.038758587 -0.032700233
-0.016999133 0.006276364 0.067976765 -0.017724214 -0.05204464 -0.012594508 -0.03200689 0.08127426
0.035011027 0.08076515 -0.130452 -0.06213114 -0.01633638 -0.0402644 -0.19769758 -0.12829073
-0.030529678 0.050972667 -0.0704036 0.05468706 -0.03485425 -0.13913196 -0.017816955 0.048317432
-0.12234191 -0.07909822 -0.13809948 0.05454902 -0.013836921 0.1226662 0.15061127 -0.026106292

13.bias f4 [4]
00000000: 0d7d c4bb 5ef7 64bd ec62 37bd a034 0c3b
-0.0059963525 -0.05589997 -0.044772074 0.0021393672

14.weight f4 [4]
00000000: 45cc 993f 8f0a bb3f 7d47 993f fc05 993f
1.2015463 1.4612597 1.1974941 1.1954951

14.bias f4 [4]
00000000: 3d18 5f3e e0cb db3e a216 483e 477f 5a3e
0.2178659 0.42928982 0.19539884 0.21337615

14.running_mean f4 [4]
00000000: d1a2 1a3f f36a de3e cd5e 893e d509 07bf
0.6040469 0.4344097 0.2683014 -0.5274938

14.running_var f4 [4]
00000000: 6155 9a3e aac0 833e 4185 8d3f fd8c 0540
0.30143264 0.2573293 1.1056291 2.0867302

17.weight f4 [1, 4, 3, 3]
00000000: 424c 6cbd 3e20 dd3d 39b6 8ebd 9ae7 8abd
00000010: f270 d73e 0992 d13d ce6f a33d f699 51bd
00000020: 38b2 6f3c 9540 46be 8307 a6be c92c b3be
00000030: 1e4f c1be c327 9fbe 9235 a1be 1321 93be
00000040: 8cb2 e7be f3ac 42be 2d22 fa3d ddf6 9b3e
00000050: 3f4e 443e 9778 f6bc c0b8 9c3e ce0f 3c3e
00000060: aa60 29bd 72f9 823e d21c ec3b a433 9d3e
00000070: 2e48 8b3e ce9a 993e 0537 e03d 8a3a 9d3e
00000080: e210 923d 3acd 9c3d 8c67 ebba 0791 7b3e
-0.057689913 0.10797165 -0.0696835 -0.06782456 0.42078358 0.10232932 0.079803094 -0.05117222
0.014629893 -0.19360574 -0.32427606 -0.34995106 -0.37755674 -0.31085023 -0.31486183 -0.2873617
-0.45253408 -0.19011287 0.1221355 0.3046178 0.19170474 -0.030086799 0.30609703 0.18365404
-0.04135195 0.25580937 0.007205584 0.3070346 0.27203506 0.3000092 0.10947994 0.30708724
0.071321264 0.07656331 -0.0017959937 0.24567042
